Trabajo Practico 2/models/conf_3.pt (torch, 214270 bytes, 6 tensors)

weight f4 [64, 784]
-0.019408977 0.019547308 0.020955816 0.014695329 0.028350865 0.013588031 0.03551984 0.0026539378
-0.03536065 0.0045854165 0.0151319355 -0.025226327 -0.025266161 0.025212226 -0.0106390435 0.026181515
0.03097602 0.006983938 -0.009445951 0.016429413 0.012218361 -0.027947376 0.01909277 0.021117935
-0.030541137 -0.005658921 -0.026879044 -0.022593118 -0.025544336 0.0145579055 0.033822767 0.004980703
-0.025957506 0.011789867 -0.029404571 -0.019108372 0.0333845 -0.029094877 0.0013763322 -0.0031614252
0.019386215 0.014077871 -0.0135884145 -0.014268458 0.0020591163 0.0060725226 0.025928674 -0.033992946
-0.017754843 0.01734476 -0.014600304 0.021274615 -0.01176741 0.014903756 -0.019755878 -0.019220458
0.015387597 -0.035656426 0.0156991 0.020299023 0.0170138 -0.0036212434 0.0018180048 0.018885037
0.031165643 -0.031767976 -0.007132343 0.014514693 0.017558277 0.023684755 0.011869453 0.02433372
0.016951421 -0.0068893326 0.0059094536 0.03148989 0.012269264 0.03216921 -0.024561774 0.0017150402
-0.01559654 -0.03391593 0.026315177 -0.0054543153 0.02571378 -0.028836593 -0.029848931 0.034345087
-0.0012590244 -0.035503194 0.01745194 0.034561753 0.025736257 0.026543237 -0.0051698852 -0.019717516
0.024755681 0.024346868 -0.0050354092 0.014220305 0.022173014 -0.03213417 -0.026735978 -0.0022568905
0.029618507 0.03519593 -0.02292187 0.03563374 -0.022184044 -0.002990646 -0.009694929 -0.028991684
0.012851924 -0.021798743 0.02664669 0.004991663 0.014302584 0.026966913 -0.019158794 -0.03474272
0.007869447 0.0018069415 -0.023254793 0.017468557 -0.028652452 -0.03018205 0.034550495 0.00041934452
-0.0043977886 -0.015141703 0.024773156 0.02566974 0.018308517 -0.0008314175 -0.008901585 0.03455954
0.016586298 -0.0060276873 0.025805434 0.010953337 0.0026566845 0.026606092 -0.005062764 -0.03394531
-0.0045332187 -0.026689922 -0.032057013 0.003675114 0.021969393 0.034009814 0.0007813123 0.012627971
-0.032838415 -0.008628014 -0.019536523 0.017349703 0.004907124 0.020160908 -0.032587234 -0.014957461
-0.026652742 0.015875101 0.0013288186 0.011718296 -0.03289392 -0.025643183 0.03484867 -0.0072949245
0.018335124 0.011123753 0.033318408 -0.034298923 -0.018697143 -0.014480753 0.022179067 0.015726367
-0.029329358 -0.011728154 0.0009426045 -0.034358393 -0.008968173 0.034756213 -0.007513769 0.0081749335
-0.014135152 -0.015441233 -0.022538323 0.0019010555 -0.0018251657 0.03603936 -0.008196844 0.020672591
-0.021647332 0.0088810595 0.024563204 -0.001123952 -0.0045657335 -0.0024824932 0.026884155 -0.019018123
0.0027536906 0.01985707 0.020721745 -0.025670938 0.021066278 -0.031590626 -0.0048935725 -0.03287301
0.02777025 -0.023302961 -0.029837217 -0.03202123 0.035594948 0.015309016 -0.031125484 0.027167806
0.02891631 0.02498505 -0.03226001 0.012127926 -0.031397704 -0.006517219 -0.0034045386 -0.034197092
-0.015360763 -0.019878674 0.022556575 -0.0153580755 0.005223452 0.019701933 0.002904066 -0.022941625
0.014270448 0.010449072 -0.026162183 0.02879565 -0.021036718 0.023799973 -0.026455382 -0.009880242
0.009663238 0.032236394 -0.030866722 0.011887426 0.00076886616 -0.025118006 -0.017694915 0.027600398
0.032434803 0.024864834 -0.0316853 -0.016055789 -0.029893214 0.008008368 0.012759812 -0.032421675
00000000: 93ff 9ebc ad21 a03c 88ab ab3c adc4 703c
00000010: 1340 e83c 55a0 5e3c 407d 113d b0ed 2d3b
00000020: 54d6 10bd 4341 963b f0eb 773c 71a7 cebc
00000030: fbfa cebc df89 ce3c 624f 2ebc 9e7a d63c
00000040: 6cc1 fd3c 85d9 e43b 31c3 1abc fa96 863c
00000050: 852f 483c e5f1 e4bc 7168 9c3c 85ff ac3c
00000060: 6831 fabc 786e b9bb 7131 dcbc 3415 b9bc
00000070: 5b42 d1bc 4884 6e3c be89 0a3d 2a35 a33b
00000080: d6a4 d4bc 492a 413c dbe1 f0bc 2989 9cbc
00000090: 2fbe 083d 6158 eebc 0c66 b43a ea2f 4fbb
000000a0: d7cf 9e3c dfa6 663c f1a1 5ebc 40c6 69bc
000000b0: 3df2 063b 03fc c63b 5f68 d43c 303c 0bbd
000000c0: 9b72 91bc 9916 8e3c 1d36 6fbc 1a48 ae3c
000000d0: 18cc 40bc e22e 743c 14d7 a1bc 3974 9dbc
000000e0: 421c 7c3c 790c 12bd 669b 803c 234a a63c
000000f0: 8660 8b3c 6252 6dbb 1e4a ee3a cbb4 9a3c
00000100: 174f ff3c 231f 02bd 6eb6 e9bb 09cf 6d3c
00000110: 60d6 8f3c 8806 c23c 1878 423c 8257 c73c
00000120: b5dd 8a3c e9bf e1bb 17a4 c13b 8bfb 003d
00000130: 0605 493c ddc3 033d c635 c9bc 33cb e03a
00000140: a188 7fbc 6eeb 0abd ed92 d73c 1dba b2bb
00000150: b5a5 d23c b83a ecbc bf85 f4bc 6fad 0c3d
00000160: d905 a5ba cc6b 11bd 5ff7 8e3c a090 0d3d
00000170: d8d4 d23c 3471 d93c 2468 a9bb a186 a1bc
00000180: 6dcc ca3c 1573 c73c 1300 a5bb 48fc 683c
00000190: 2ea4 b53c 1f9f 03bd 6905 dbbc 57e8 13bb
000001a0: 83a2 f23c 9c29 103d a5c6 bbbc aff4 113d
000001b0: 50bb b5bc b7fe 43bb 7bd7 1ebc f87f edbc
000001c0: e090 523c 4793 b2bc 294a da3c 1b91 a33b
000001d0: 6355 6a3c b7e9 dc3c e7f2 9cbc 624e 0ebd
000001e0: daee 003c e5d6 ec3a d680 bebc 381a 8f3c
000001f0: 8cb8 eabc 5940 f7bc d284 0d3d 78db db39
00000200: 531b 90bb e814 78bc 13f1 ca3c 5949 d23c
00000210: befb 953c 7cf3 59ba f4d7 11bc 4e8e 0d3d
00000220: fddf 873c e883 c5bb eb65 d33c a075 333c
00000230: c51b 2e3b 05f5 d93c 8be5 a5bb 3d0a 0bbd
00000240: 658b 94bb d3a4 dabc 374e 03bd 2eda 703b
00000250: 28f9 b33c e04d 0b3d fbd0 4c3a 8de5 4e3c
00000260: 9381 06bd 835c 0dbc 0f0b a0bc f720 8e3c
00000270: f1cb a03b 7d28 a53c 317a 05bd 2310 75bc
00000280: da56 dabc 800c 823c c12b ae3a 19fe 3f3c
00000290: c6bb 06bd a711 d2bc 7bbd 0e3d 430a efbb
000002a0: 8b33 963c 6740 363c e278 083d 077d 0cbd
000002b0: c02a 99bc ae40 6dbc e0b0 b53c 95d4 803c
000002c0: 1f44 f0bc 7127 40bc 1e19 773a 63bb 0cbd
000002d0: 3eef 12bc 885c 0e3d 1036 f6bb 28f0 053c
000002e0: 2097 67bc 3afd 7cbc 4aa2 b8bc d62c f93a
000002f0: 663a efba 029e 133d 0e4c 06bc 9159 a93c
00000300: bf55 b1bc dd81 113c c638 c93c 9251 93ba
00000310: 269c 95bb 53b1 22bb 293c dc3c e5cb 9bbc
00000320: 4377 343b 4bab a23c a6c0 a93c dc4b d2bc
00000330: 3093 ac3c 2c65 01bd 435a a0bb d9a5 06bd
00000340: 6f7e e33c dae5 bebc 2e6d f4bc b128 03bd
00000350: 02cc 113d abd2 7a3c dffa febc 058f de3c
00000360: e6e1 ec3c 73ad cc3c 1223 04bd 35b4 463c
00000370: e19a 00bd 658e d5bb ae1e 5fbb 4012 0cbd
00000380: b6ab 7bbc 9ad8 a2bc 91c8 b83c 70a0 7bbc
00000390: 7e29 ab3b f365 a13c 2452 3e3b 13f0 bbbc
000003a0: 99ce 693c 9632 2b3c 1352 d6bc dbe4 eb3c
000003b0: 3255 acbc 29f8 c23c f5b8 d8bc bde0 21bc
000003c0: 8f52 1e3c 4f0a 043d 35dc fcbc 7ac3 423c
000003d0: bc8d 493a 47c4 cdbc edf4 90bc 3b1a e23c
000003e0: 5bda 043d 56b1 cb3c 72c8 01bd 6e87 83bc
000003f0: 9de2 f4bc 8835 033c 880e 513c 97cc 04bd

bias f4 [64]
0.03071976 -0.016670972 -0.0140909655 -0.020292941 -0.035153568 -0.010406787 0.03180593 -0.008624557
0.022602268 0.02999679 -0.009077647 -0.014509152 0.003652405 0.012991905 -0.03431139 0.01476125
0.020351693 -0.03503699 -0.0029280947 0.0053004366 -0.03393628 0.0020282413 0.0122662205 0.027016452
0.00966266 -0.02223565 0.0063899425 -0.0075869565 0.028673667 0.00928449 -0.031579066 -0.006873951
0.022511443 0.013937453 0.005387647 0.031569332 -0.02378128 -0.026739754 0.008381576 0.03343091
2.654998e-05 0.019234335 0.022055961 -0.03526048 -0.005075089 -0.013897985 0.0021959888 0.0018753508
-0.023493359 -0.009702763 0.0033246828 -0.023646185 0.021790091 -0.024650665 0.009747908 -0.006419272
0.002653295 0.028504673 0.005808681 0.030129794 0.021225275 0.022058213 0.0108128525 0.027471311
00000000: 02a8 fb3c 9091 88bc cbdd 66bc 623d a6bc
00000010: 30fd 0fbd 3a81 2abc ef46 023d 044e 0dbc
00000020: 6428 b93c d4bb f53c 69ba 14bc cbb7 6dbc
00000030: 305d 6f3b 00dc 543c 1a8a 0cbd 2bd9 713c
00000040: 98b8 a63c f282 0fbd 47e5 3fbb 49af ad3b
00000050: c500 0bbd 3eec 043b 42f8 483c 9b51 dd3c
00000060: 2250 1e3c 8a27 b6bc b962 d13b 019c f8bb
00000070: 0ae5 ea3c f91d 183c 0d59 01bd e13e e1bb
00000080: eb69 b83c ea59 643c dc8a b03b d84e 013d
00000090: f5d0 c2bc 540d dbbc e152 093c daee 083d
000000a0: a6b7 de37 5391 9d3c b4ae b43c 4b6d 10bd
000000b0: ef4c a6bb 60b4 63bc 94ea 0f3b 55ce f53a
000000c0: 2575 c0bc 56f8 1ebc ece2 593b a5b5 c1bc
000000d0: 2281 b23c 31f0 c9bc b1b5 1f3c c258 d2bb
000000e0: e7e2 2d3b a282 e93c bf56 be3b c2d2 f63c
000000f0: a1e0 ad3c 6db3 b43c 6428 313c 840b e13c

weight f4 [31, 64]
0.12144668 -0.008453825 -0.09378553 0.06625218 -0.031052388 0.11191968 0.048997432 0.015911153
0.12024084 -0.046854056 0.06163552 0.056959905 -0.10753523 -0.057351094 -0.11892936 0.10818178
-0.10440245 -0.107015945 0.052803334 -0.06563997 0.10794782 0.07365597 -0.124461114 -0.061726227
-0.013724254 -0.03705423 0.027109083 0.07793524 0.036412425 -0.09505342 -0.096465096 -0.12034616
-0.08069528 -0.08627975 -0.046728134 -0.002276774 -0.118099734 0.10918823 0.045106597 0.017690895
-0.11074569 -0.07214939 0.056581564 0.01931934 -0.05024625 0.12480495 0.0730808 -0.09971096
-0.082837075 0.083954 -0.1193132 -0.045647375 -0.088953406 0.10798811 0.11493076 0.09105364
0.11045401 0.11182034 0.0017695834 -0.057097305 0.03148678 0.044458453 -0.0697362 -0.039226964
0.12258506 0.004930845 -0.079891115 0.025840951 -0.017534051 -0.10321702 -0.04669465 0.114924446
-0.11642257 0.09483684 0.12258874 -0.11317057 0.014863015 -0.07956665 -0.0392068 -0.08692654
-0.08600354 0.012079147 0.028450772 -0.04168598 -0.04875812 -0.10173308 0.062467 -0.04603757
-0.10632448 -0.08493753 -0.065751575 0.055012558 0.10275448 -0.021636024 -0.04254783 0.028795771
-0.016452756 0.122009106 0.08385774 -0.09223998 0.08765682 0.07830273 -0.058214605 0.034465328
0.0665108 0.024099221 -0.10651178 -0.124850735 0.08297752 0.0029054466 -0.00413516 -0.105984986
0.080874816 -0.06352737 0.044566177 -0.01840252 -0.12042233 0.050605725 0.0054835505 0.023404282
-0.082524955 0.111197926 -0.016366884 -0.028167153 -0.011780733 -0.051182885 -0.039940953 -0.10542837
-0.08893508 0.08700593 0.015959216 -0.07987471 0.07824124 -0.08224607 -0.117245875 0.09100549
-0.119692646 -0.06882976 0.039448578 -0.06262571 -0.11092421 0.042380698 0.079523854 -0.04248683
-0.055230822 0.046762906 -0.06835868 -0.10548752 0.009397501 -0.09960514 0.10786212 0.057816375
-0.031549465 -0.09412332 0.034133643 0.108198695 -0.096861385 0.09352684 0.11674183 0.10640785
-0.09726907 0.0282374 -0.043423884 0.10201716 0.12355764 0.10315467 0.09102657 0.00096406305
0.097674206 0.023010243 0.05635898 0.08797852 0.028320678 0.09439237 -0.033357352 -0.0766779
0.11504278 0.117275715 0.102618106 0.062155493 0.0013883157 -0.049066495 -0.112265706 -0.06325876
0.04473028 -0.04833362 0.05431357 -0.0118023725 -0.0037243543 0.078797214 0.066014394 -0.09500474
-0.07039542 0.0112642115 -0.04670943 0.10066926 0.08658727 -0.04766817 0.115166254 0.049550846
-0.11891249 -0.03449792 0.09504093 0.014050476 0.03666742 0.0128789 -0.0814502 0.094316565
0.025072535 -0.11073102 -0.061135173 0.1227364 -0.039106924 0.09604145 0.016685266 -0.003979021
-0.05320346 0.0664211 0.022605514 -0.108357266 -0.054790765 0.013560036 0.046877544 -0.089809574
-0.11916857 -0.0038308017 -0.061675284 -0.03514171 -0.09001441 0.027650965 0.115525715 -0.08274988
-0.055802703 -0.03166406 -0.016122917 0.068139955 -0.108341776 -0.009627245 0.02120105 -0.02640885
0.09927933 -0.00917527 -0.12093123 0.06328775 0.10867417 -0.07304609 0.056300737 0.048029944
-0.0761743 0.04639297 -0.075169384 0.022561722 0.022404948 -0.08050375 -0.07717997 0.06489179
00000000: 09b9 f83d e981 0abc a112 c0bd 39af 873d
00000010: 9461 febc 2536 e53d 88b1 483d 1b58 823c
00000020: d440 f63d 0aea 3fbd 8775 7c3d ca4e 693d
00000030: 6e3b dcbd fbe8 6abd 3c91 f3bd 698e dd3d
00000040: f4d0 d5bd 2d2b dbbd 4f48 583d 406e 86bd
00000050: bf13 dd3d f1d8 963d 78e5 febd a4d4 7cbd
00000060: b2db 60bc 2dc6 17bd de13 de3c 839c 9f3d
00000070: 3225 153d 5eab c2bd 7e8f c5bd 0c78 f6bd
00000080: 9143 a5bd 70b3 b0bd 0066 3fbd ee35 15bb
00000090: 46de f1bd 149e df3d b2c1 383d 7fec 903c
000000a0: a3ce e2bd 0fc3 93bd 12c2 673d 9843 9e3c
000000b0: 03cf 4dbd bd99 ff3d 63ab 953d 4335 ccbd
000000c0: 7ca6 a9bd 13f0 ab3d 7b5a f4bd bef8 3abd
000000d0: 342d b6bd df28 dd3d d160 eb3d 557a ba3d
000000e0: b635 e23d 1002 e53d 5ef1 e73a ddde 69bd
000000f0: 48f8 003d 111a 363d dad1 8ebd 74ac 20bd
00000100: e00d fb3d ed92 a13b f49d a3bd 67b0 d33c
00000110: 92a3 8fbc 7263 d3bd e442 3fbd 825d eb3d
00000120: f56e eebd d139 c23d ce0f fb3d f9c5 e7bd
00000130: 0184 733c d7f3 a2bd 4f97 20bd 8b06 b2bd
00000140: a022 b0bd 9de7 453c 9811 e93c ebbe 2abd
00000150: 98b6 47bd 6f59 d0bd 66dd 7f3d e491 3cbd
00000160: a6c0 d9bd baf3 adbd c3a8 86bd d954 613d
00000170: f170 d23d 083e b1bc a246 2ebd 1ce5 eb3c
00000180: eec7 86bc e9df f93d 9bbd ab3d 51e8 bcbd
00000190: 6b85 b33d 2f5d a03d 7072 6ebd 842b 0d3d
000001a0: d036 883d bb6b c53c d922 dabd beb1 ffbd
000001b0: 1ef0 a93d 4e69 3e3b 3c80 87bb a80e d9bd
000001c0: b2a1 a53d a31a 82bd 068b 363d e2c0 96bc
000001d0: fc9f f6bd f347 4f3d 5baf b33b 56ba bf3c
000001e0: d802 a9bd bdbb e33d d813 86bc cdbe e6bc
000001f0: fa03 41bc 25a5 51bd 2099 23bd d4ea d7bd
00000200: 9823 b6bd 2a30 b23d e7bc 823c 5a95 a3bd
00000210: f13c a03d a170 a8bd 9b1e f0bd 1661 ba3d
00000220: 6b21 f5bd 9ef6 8cbd d594 213d e941 80bd
00000230: 3b2c e3bd 6297 2d3d 67dd a23d ac06 2ebd
00000240: b739 62bd 768a 3f3d a3ff 8bbd d709 d8bd
00000250: faf7 193c c8fd cbbd d1e6 dc3d ddd0 6c3d
00000260: 033a 01bd bac3 c0bd b8cf 0b3d 4797 dd3d
00000270: 435f c6bd 008b bf3d 5716 ef3d 5cec d93d
00000280: 0235 c7bd 1f52 e73c 3edd 31bd 5fee d03d
00000290: ca0b fd3d c142 d33d 236c ba3d 2db9 7c3a
000002a0: 6a09 c83d fa7f bc3c acd8 663d 152e b43d
000002b0: c400 e83c c950 c13d b8a1 08bd 4e09 9dbd
000002c0: 8d9b eb3d 402e f03d 7129 d23d c296 7e3d
000002d0: 25f8 b53a f3f9 48bd 90eb e5bd cf8d 81bd
000002e0: 1937 373d 79f9 45bd e877 5e3d bd5e 41bc
000002f0: 4c14 74bb 6f60 a13d 8e32 873d d891 c2bd
00000300: 792b 90bd 878d 383c 6352 3fbd af2b ce3d
00000310: ab54 b13d b33f 43bd 49dc eb3d d4f5 4a3d
00000320: 6488 f3bd b14d 0dbd d2a4 c23d f833 663c
00000330: 9430 163d 0602 533c 5dcf a6bd 0b29 c13d
00000340: eb64 cd3c f2c6 e2bd e068 7abd 395d fb3d
00000350: 952e 20bd 61b1 c43d 8aaf 883c 7362 82bb
00000360: dfeb 59bd c907 883d 332f b93c 6aea ddbd
00000370: 486c 60bd ea2a 5e3c ab02 403d 15ee b7bd
00000380: a70e f4bd 300e 7bbb 399f 7cbd c1f0 0fbd
00000390: 7a59 b8bd 4784 e23c bf98 ec3d c578 a9bd
000003a0: 6091 64bd 2cb2 01bd 3514 84bc f68c 8b3d
000003b0: 4be2 ddbd 98bb 1dbc d3ad ad3c 5f57 d8bc
000003c0: f652 cb3d df53 16bc cbaa f7bd 029d 813d
000003d0: 9090 de3d 3099 95bd 9a9b 663d 0cbb 443d
000003e0: 4501 9cbd 8e06 3e3d 68f2 99bd 5cd3 b83c
000003f0: 958a b73c 26df a4bd 8810 9ebd fde5 843d

bias f4 [31]
-0.061978538 -0.033031024 -0.03049394 -0.038730823 0.09820916 0.022442274 -0.12189068 0.045729786
-0.0055704736 0.079841696 -0.04142182 -0.08379842 -0.017498039 -0.012809961 0.035803944 -0.056783557
0.11613754 -0.067122765 -0.004331374 -0.04387727 0.066732414 -0.056927014 -0.07514412 0.06403276
0.008438963 -0.10357184 -0.033108037 0.02198179 -0.04706674 0.081174396 0.081112765
00000000: 35dd 7dbd 8a4b 07bd 6dce f9bc 36a4 1ebd
00000010: e221 c93d dcd8 b73c d2a1 f9bd 284f 3b3d
00000020: 8588 b6bb 0b84 a33d eda9 29bd 829e abbd
00000030: 0c58 8fbc dfe0 51bc 28a7 123d e095 68bd
00000040: 85d9 ed3d a977 89bd 33ee 8dbb a7b8 33bd
00000050: 01ab 883d 4d2c 69bd 29e5 99bd 9c23 833d
00000060: 9443 0a3c 791d d4bd 4b9c 07bd 2813 b43c
00000070: 0ec9 40bd c33e a63d 731e a63d

weight f4 [10, 31]
0.013114997 -0.051860224 0.00930535 -0.11224941 -0.09265438 -0.09637555 0.13311057 -0.07312952
0.090983145 0.07193555 0.07202736 0.010050129 -0.123592414 -0.11154898 0.08959217 -0.11507485
-0.032526817 0.045494102 -0.036508255 -0.06285709 -0.0010067159 0.011163523 -0.083848886 0.16783227
0.066247955 -0.1683704 -0.1537575 0.103377335 0.15951367 -0.053512447 0.07846312 0.052351214
-0.12471557 -0.17472428 0.021851866 -0.082478605 -0.045204505 -0.15611447 0.024474408 0.022076981
-0.15452442 0.15691027 0.053768497 0.1435755 -0.03064143 0.11220509 -0.05605537 0.14984246
-0.13573244 -0.12702766 -0.060606513 0.064685866 0.00983116 -0.15937684 0.044789422 0.08397498
-0.107167184 0.07580776 -0.13882396 0.054944575 -0.04030934 0.13393085 0.025114087 0.0494864
-0.086048566 -0.13738196 0.07546693 0.026763782 0.17596956 -0.052959856 0.042848263 -0.060228914
-0.08050694 -0.15047094 -0.0765384 0.17128406 -0.107265204 0.15581566 -0.17245372 -0.096805155
0.078457795 0.032746952 0.060234126 -0.06369545 -0.025753506 -0.011417129 0.110259145 -0.0032113024
0.09343651 0.059126973 -0.034228757 0.1283378 -0.073280655 -0.005509561 0.1779073 -0.032718737
-0.08704111 -0.07665614 0.11862143 0.14684314 0.023602165 -0.021905595 -0.039128948 -0.089715086
-0.026294885 -0.09179423 0.03568954 -0.013820768 0.03128865 0.0070508765 -0.13177651 -0.032668177
0.15884891 -0.07535358 0.16080236 -0.081212334 0.11897997 0.14791152 -0.015359792 0.16649279
0.10056602 0.15586111 -0.07196543 -0.115974054 -0.12437276 0.09482362 -0.07952343 -0.15493481
0.10772102 -0.02759456 -0.08950191 -0.12753172 -0.09944429 -0.007864486 -0.07202165 0.0027534163
0.15837704 0.13783726 -0.1454118 -0.03312184 -0.032141004 0.022956097 0.10682357 -0.018385578
0.043528907 -0.10489703 -0.08281974 -0.10346731 -0.00956421 -0.1345169 -0.04643905 0.08892075
0.12179736 -0.09230646 -0.10684457 -0.07651929 -0.12249073 0.05908772 0.07271387 0.11145847
-0.09386373 0.15347773 -0.08331138 0.09929131 -0.1568657 0.019780165 0.13057588 0.11369042
-0.15979724 0.034109186 0.15041585 -0.026932115 0.05110134 0.0066255615 -0.12909633 -0.009390282
0.07199439 -0.012603783 -0.11729979 -0.07612483 -0.14161998 0.020086536 0.021522745 0.14346744
-0.035372943 0.014748652 0.038637016 -0.100752875 0.015845573 -0.1373977 -0.032386255 0.04395072
0.074084535 -0.05615023 0.07773675 0.027058013 -0.021305818 0.12486176 -0.070344314 0.08370476
0.07373153 -0.05232876 0.100590356 -0.1689768 -0.11771637 -0.048465263 0.17611288 0.16438441
-0.11999445 0.11734791 -0.01821541 0.15612571 -0.16975677 -0.12605506 -0.109393775 0.083404586
0.12377133 0.14047904 0.021298802 0.03828856 0.11761839 -0.13519908 -0.010594426 0.10880629
-0.04277102 -0.13372317 -0.002330266 0.10751658 0.033777267 -0.09904535 -0.16521822 -0.08460276
0.14313036 -0.09488527 -0.050838426 -0.09543094 0.024938488 -0.037979484 0.16071932 0.019029705
0.121832885 -0.16100961 -0.10500822 -0.13099116 -0.13674752 0.04895792 0.11469732 -0.014781199
-0.042989936 0.03562686 0.10944561 0.023893088 0.08464276 -0.12813102 0.106695466 0.09460302
00000000: 49e0 563c 636b 54bd 7775 183c 05e3 e5bd
00000010: 94c1 bdbd 8b60 c5bd 234e 083e eec4 95bd
00000020: 5f55 ba3d f252 933d 1583 933d 4ca9 243c
00000030: 051e fdbd cb73 e4bd 1a7c b73d 5dac ebbd
00000040: d73a 05bd 0658 3a3d ae89 15bd 38bb 80bd
00000050: c8f3 83ba 36e7 363c f7b8 abbd 39dc 2b3e
00000060: 02ad 873d 4a69 2cbe 9b72 1dbe 7fb7 d33d
00000070: 8d57 233e de2f 5bbd 46b1 a03d 3a6e 563d
00000080: e06a ffbd ecea 32be af02 b33c 8bea a8bd
00000090: 5c28 39bd 79dc 1fbe 8e7e c83c c9da b43c
000000a0: a63b 1ebe 16ad 203e 5b3c 5c3d 7505 133e
000000b0: bc03 fbbc c8cb e53d 519a 65bd 4d70 193e
000000c0: 72fd 0abe 8a13 02be 893e 78bd 067a 843d
000000d0: e012 213c af33 23be 1d75 373d 13fb ab3d
000000e0: 787a dbbd 1941 9b3d de27 0ebe 900d 613d
000000f0: 681b 25bd 2b25 093e 0fbc cd3c 40b2 4a3d
00000100: 3b3a b0bd dbad 0cbe 688e 9a3d b83f db3c
00000110: 5d31 343e 6fec 58bd a981 2f3d 98b2 76bd
00000120: d3e0 a4bd 0e15 1abe 2ac0 9cbd 1765 2f3e
00000130: dcad dbbd 248e 1f3e b597 30be c841 c6bd
00000140: 7bae a03d ab21 063d 0fb8 763d c372 82bd
00000150: 04f9 d2bc e90e 3bbc 8ccf e13d b774 52bb
00000160: a45b bf3d 202f 723d 7433 0cbd fc6a 033e
00000170: 2b14 96bd 8c89 b4bb 552d 363e 1504 06bd
00000180: 9c42 b2bd e5fd 9cbd cbef f23d 0c5e 163e
00000190: 5459 c13c 5d73 b3bc ad45 20bd 8bbc b7bd
000001a0: 5f68 d7bc 9dfe bbbd 322f 123d 8170 62bc
000001b0: 8728 003d 0a0b e73b 6cf0 06be 11cf 05bd
000001c0: 4aa9 223e fa52 9abd 60a9 243e a752 a6bd
000001d0: c5ab f33d 1e76 173e a3a7 7bbc 167d 2a3e
000001e0: 8ff5 cd3d 0e9a 1f3e 9d62 93bd ce83 edbd
000001f0: 25b7 febd e332 c23d 2edd a2bd 3ba7 1ebe
00000200: d79c dc3d fd0d e2bc c74c b7bd ad97 02be
00000210: 73a9 cbbd 0cda 00bc 1680 93bd a972 343b
00000220: 972d 223e 3625 0d3e d5e6 14be c4aa 07bd
00000230: 49a6 03bd 6d0e bc3c 51c6 da3d 5a9d 96bc
00000240: 5e4b 323d 41d4 d6bd 659d a9bd abe6 d3bd
00000250: 34b3 1cbc ccbe 09be e036 3ebd 151c b63d
00000260: e570 f93d 2b0b bdbd 53d1 dabd 25b6 9cbd
00000270: 6bdc fabd f705 723d 02eb 943d 5744 e43d
00000280: a13b c0bd 4429 1d3e 289f aabd 3e59 cb3d
00000290: 67a1 20be 030a a23c afb5 053e 86d6 e83d
000002a0: e3a1 23be 13b6 0b3d 9d06 1a3e bda0 dcbc
000002b0: a44f 513d 3d1b d93b d431 04be b3d9 19bc
000002c0: cb71 933d 1980 4ebc df3a f0bd 56e7 9bbd
000002d0: d404 11be 858c a43c 7850 b03c 21e9 123e
000002e0: 38e3 10bd 55a4 713c d941 1e3d 8657 cebd
000002f0: 93ce 813c fcb1 0cbe 73a7 04bd ac05 343d
00000300: a2b9 973d c9fd 65bd 7234 9f3d c4a8 dd3c
00000310: 8a89 aebc 86b7 ff3d ae10 90bd 676d ab3d
00000320: 8e00 973d af56 56bd 5102 ce3d 4108 2dbe
00000330: 4815 f1bd 8383 46bd ef56 343e 6354 283e
00000340: a6bf f5bd 1a54 f03d 7c38 95bc 6bdf 1f3e
00000350: b8d4 2dbe 9414 01be d809 e0bd 06d0 aa3d
00000360: d37b fd3d bdd9 0f3e d37a ae3c 77d4 1c3d
00000370: e9e1 f03d a171 0abe 3e94 2dbc d5d5 de3d
00000380: aa30 2fbd baee 08be 60b7 18bb a731 dc3d
00000390: 085a 0a3d 4ad8 cabd f72e 29be 3644 adbd
000003a0: c490 123e 3553 c2bd f43b 50bd 4c71 c3bd
000003b0: cd4b cc3c 6090 1bbd 9b93 243e 2fe4 9b3c
000003c0: 8583 f93d b4df 24be 8d0e d7bd 8c22 06be
000003d0: 8b07 0cbe 1a88 483d 6ee6 ea3d d82c 72bc
000003e0: 3716 30bd 78ed 113d 0525 e03d 70bb c33c
000003f0: 2f59 ad3d c734 03be 2783 da3d 3abf c13d

bias f4 [10]
0.16693978 -0.09201499 0.12548012 0.16830055 0.14080647 -0.0070129377 0.083056085 -0.011699689
-0.06069326 -0.09879704
00000000: 43f2 2a3e 5b72 bcbd dc7d 003e fb56 2c3e
00000010: 922f 103e c9cc e5bb 4f19 aa3d 0db0 3fbc
00000020: 7f99 78bd 1a56 cabd
