Trabajo Practico 2/models/conf_2.pt (torch, 944510 bytes, 6 tensors)

weight f4 [256, 784]
00000000: eb62 8abc ec13 a93c 7db5 d8bc 8463 6dbc
00000010: 4dda 0c3c bb9d 6d3c 1c97 913c c6e8 2d3c
00000020: 5e4f fd39 4bda 95ba a0b0 84bc 9e88 f53b
00000030: b89d aaba 5daf 0b3d a9e0 333b eecf c6bc
00000040: 7c6c dbbc 9fa3 703c dd46 9dbc c647 433c
00000050: 0d05 8a3c 6934 1e3c 021e cebc 144f fdbc
00000060: b4aa e43c 6e86 07bd a744 793a 5909 1cbc
00000070: 5f10 cfbb 5beb 13bc 48a0 a73c 9a87 63bc
00000080: 6bd4 7fbc 5d40 a33c 18c3 9ebc cd38 d4bc
00000090: 291d 2bbc fb79 053d d8b0 533c e764 ec3c
000000a0: 22ba 9bbb 9282 51bc 673b c0bc 7543 7ebc
000000b0: 6880 19ba d00a 033d cfd4 f43b 9fe4 063d
000000c0: 2fe8 06bd 5fa4 9a3b 12b6 debb ba62 703c
000000d0: af0b 76bc 1de5 ccbc 13fa ffbc 0ab0 06bd
000000e0: 72ff f2bc 6696 bf3c 9394 6b3b ac4c 0abd
000000f0: 1f83 cdba caa4 913c ce78 0cbd e810 08bb
00000100: 6f10 4fbc 1ef5 0f3d 87a5 163c d487 21bc
00000110: de90 eabc 6360 acbc 8b72 653c abc0 d6bc
00000120: 6fbb 8c3b 23ba 9dbb 6977 08bd 15e8 0bbd
00000130: 16c4 c93a f109 f83c a3d3 94bc 0d03 d73c
00000140: 2c4c 023d 3fe7 a53c 0766 b13b 8298 eabc
00000150: 227a 6ebb c552 b23c 65b6 68bc 75e5 673c
00000160: 2ca7 a0bc 8281 183c 7350 3dbc e1dc 04bd
00000170: 7b00 0bbc d9e9 883c d324 07bd e008 44bb
00000180: c75d 8339 d747 ae3c bd33 3e3c 4392 07bd
00000190: cbda 333b 662e b83c 30f5 ae3c b2ed a93c
000001a0: 8f67 62bc d9a6 9fbc 1988 fcbc 5464 f53b
000001b0: a9c6 f33a a940 cfbc 1f82 f7bc 5fc2 aebc
000001c0: 8a1c 0bbc 71d6 52bc 25f1 c9bc b73e 0a3c
000001d0: eaa4 02bd 5502 ce3c b6b7 0dbc fe38 4c3c
000001e0: 91b4 673c 5083 07bd 3230 23bc aaf6 ea3c
000001f0: 24fc 843c 969d 5e3c 45fd 45bc 45c0 1dbb
00000200: 3b0d cdbb 50bb 05bc 66c6 983c 39de b83c
00000210: 1b91 693c aa7f debc ffd6 8c3c ef10 ae3c
00000220: f210 133d 36f3 f33b 502c 433c cd9e 093d
00000230: b150 033d 4b7a c8bc d16b e43b 4dcc be3c
00000240: 0fe9 863c 591f 04bd ef00 773c a2c6 343c
00000250: ba8b 0a3d bf75 903a fb7c cb3a 68e8 f9bc
00000260: 8f7f 75bc 929a 653c d2f5 37bc aa50 d9ba
00000270: 5402 073d 9b14 57bc 18ca aabc 7ef5 07bd
00000280: 7099 0f3d 3631 a53c fd8f 91bc 0aa7 033c
00000290: 3469 a8bc 7398 e5bb 7517 d73b 0660 cabb
000002a0: 8a8b 993c 178e 1fbb 78d7 e63c 77f1 0e3d
000002b0: 309a a63c 6f77 83bc 468e bcbc b61b 55bc
000002c0: 355d 313c f0f5 4d3c 503f 1dbc 5a85 d13c
000002d0: 6de5 083c 1f44 673b f046 2d3c 3357 a4bc
000002e0: 8ca9 bc3c 74ed 073d 341c 03bb 51f7 093b
000002f0: 6fab 92bb 97a8 553b d9df 36bc 3ccc 04bd
00000300: d5e7 31bb 837e 013d a014 cc3c 772f c23c
00000310: 64ec b9bc 327d 16ba 5197 7bba 0a0c ad3c
00000320: 43f5 98bc 28ca 113d 4e62 163c c1f7 033d
00000330: a0ba 0dbd 9e8c 233c 0ff6 93bc 8140 05bd
00000340: fe26 c33c f603 fb3c 9663 d0bb d7e3 91bc
00000350: 05a6 543c 4119 fbba 74b5 0c3d f543 81bb
00000360: 53a8 4f3c 3aad 69bb ad3c 123c fea3 413c
00000370: 14f3 babb f291 ab3c 8053 33bc db35 83bc
00000380: c8de b4bb 9523 a0bc 5208 0b3c 3695 d53c
00000390: 4530 b13c 42a6 053d e16b 43bb 6012 003d
000003a0: 0b95 2ebc c7ab 603c bcfc 5abb a11a a73b
000003b0: 9264 a63c 7d9c ae3b ef50 c0bc 1894 e7bc
000003c0: b494 e5bc 9637 bbbc dc40 833a 84b7 23bc
000003d0: f3a6 6c3c 13d6 0bb9 3625 cd3c d9dd c93b
000003e0: e639 163c 569f a0bc e6ac 46ba 1676 db3c
000003f0: 7945 8ebc 94ad eebc bf43 4d3c 2756 9a3c
-0.01689287 0.020639382 -0.026453728 -0.014489058 0.008596969 0.014502938 0.01777225 0.01061458
0.00048315054 -0.0011432854 -0.016197503 0.0074930927 -0.0013016975 0.034102786 0.002744714 -0.02426907
-0.026785128 0.014687448 -0.01919883 0.011918968 0.016848112 0.00965605 -0.025160793 -0.030921496
0.027913429 -0.033087187 0.0009508826 -0.009523713 -0.0063190903 -0.009028281 0.02046217 -0.01388731
-0.015614609 0.019928152 -0.019380137 -0.025905991 -0.010443964 0.032587033 0.012920581 0.028856708
-0.0047524134 -0.012787478 -0.023465825 -0.015519013 -0.0005855621 0.031992733 0.007471658 0.032932874
-0.03293627 0.0047193016 -0.006796607 0.014671976 -0.015017434 -0.025011593 -0.031247174 -0.032882728
-0.029662821 0.023387145 0.0035946711 -0.033764526 -0.0015679336 0.017778773 -0.034294896 -0.002076203
-0.012638195 0.03514587 0.009194738 -0.009859044 -0.028633531 -0.021042055 0.01400436 -0.026214918
0.0042948048 -0.004813449 -0.033317003 -0.034156878 0.0015393521 0.030278178 -0.018167323 0.026246572
0.031810924 0.020251868 0.005413774 -0.028637175 -0.0036388715 0.021767983 -0.0142036425 0.014153828
-0.019610964 0.009308221 -0.011554825 -0.03243721 -0.008484001 0.01671307 -0.032994103 -0.0029912516
0.00025056137 0.02127449 0.011609015 -0.03309847 0.0027443643 0.022483062 0.021357149 0.020743225
-0.013818636 -0.019488739 -0.030826615 0.0074887667 0.0018598634 -0.025299387 -0.030213414 -0.021332918
-0.008490691 -0.01286851 -0.02465112 0.008437804 -0.031895556 0.025147596 -0.008649757 0.01246476
0.0141421715 -0.033084214 -0.009960221 0.028682072 0.016233511 0.013587376 -0.01208431 -0.00240709
-0.0062576807 -0.008162335 0.018649291 0.022566902 0.014255787 -0.027160484 0.017192362 0.021248309
0.035904832 0.0074447645 0.01191242 0.03359871 0.032059375 -0.024472376 0.0069708605 0.023290778
0.016468553 -0.032256458 0.015075906 0.011033686 0.03382466 0.0011021419 0.0015524918 -0.030506328
-0.014984026 0.014013903 -0.011228042 -0.0016579826 0.032961205 -0.013127471 -0.020848319 -0.033193104
0.03505844 0.020165067 -0.017768854 0.008035431 -0.020557977 -0.0070066988 0.0065640756 -0.0061759977
0.018743295 -0.0024346167 0.028178915 0.034898248 0.020337194 -0.016048161 -0.02301706 -0.013007095
0.010825445 0.012570843 -0.009597614 0.025576282 0.008355481 0.0035288406 0.010575995 -0.020061111
0.023030065 0.033185437 -0.0020005824 0.0021051953 -0.004476003 0.0032601708 -0.011161768 -0.032421336
-0.002714624 0.03161479 0.024912179 0.023704274 -0.022695728 -0.00057407015 -0.0009597438 0.021123905
-0.018671637 0.03559318 0.009178711 0.0322187 -0.034601808 0.009982256 -0.018061666 -0.03253222
0.023822304 0.030641537 -0.006359528 -0.017808838 0.012979035 -0.0019157307 0.034352735 -0.0039448687
0.012674409 -0.003565623 0.008925599 0.011818884 -0.0057052467 0.020943616 -0.010945201 -0.016016891
-0.0055197217 -0.019548217 0.00848587 0.026072126 0.021629462 0.03262926 -0.002981894 0.031267524
-0.010655652 0.01371283 -0.0033414802 0.00509961 0.020311628 0.0053287135 -0.023476092 -0.028268859
-0.028025009 -0.022853654 0.0010013836 -0.009992484 0.014444101 -0.00013335822 0.025042158 0.0061604795
0.0091690775 -0.019607227 -0.00075788645 0.026789706 -0.017367112 -0.029135503 0.012528359 0.018839909

bias f4 [256]
00000000: a7a4 f7bc 127a 2c3c c926 e83b 8894 5bbb
00000010: fac1 0b3d 128f 08bc eed0 ee3c 2592 46bc
00000020: 638f ee3c 0b65 aaba d848 a3bb 8313 e83c
00000030: 088f 313b 3e36 ad3c d34b 403c 5caf e43c
00000040: 96e3 d8bb c632 a0bb 36e1 5e3c 40e5 87bb
00000050: c965 1b3c e996 adbc 5ec3 0cbd 85db 2fbc
00000060: b210 a9bc 87a2 8ebc b2f3 b5bc 8cdb cb3a
00000070: 13cf 68bc 5a2f 9ebc d61f 513c b51f 8a3c
00000080: 85cd 90bc d39e 0fbd 72c5 ee3b b3ea bcbc
00000090: a99c b53c d063 c43b af3b 783c 8aa5 a0bb
000000a0: 320a b33c 50b2 033c 31b5 46bc d68a c53b
000000b0: df84 6cbc 55d2 f9bc 608a f43c 0f2d 8cbc
000000c0: 19a9 0a3d 4993 0cbc ef28 02bb 5112 003c
000000d0: 9d66 503c 1675 c13c 7432 c6bb 1bcd 223d
000000e0: 2cdf f83c bd6d 713c a91d 043d 50d2 bd3c
000000f0: 5ac4 15bd 0ff0 d93c 9591 aabb 6bfa b13c
00000100: e1e9 6e3b fc4b b4bc 8c9b e43c 3edc 703c
00000110: c77c 923b 446c 80bc 018b db3c 3a25 28bb
00000120: 5510 c0b9 604a b23c 9a70 b43c fa77 4a3c
00000130: fb41 d63c 5b56 45bc fdd5 453c 9aab 473c
00000140: 9ac4 f53c f167 41bc 6e11 00bd c7d3 8fbc
00000150: 0c36 233c 5c12 bfbc 8142 673c c68a e03b
00000160: d101 963c 1141 4dbc ba6f acbc f62b e23b
00000170: 336f dc3c 66d3 803b 604d 783c 55c7 f23c
00000180: cbea a4bc 99fd 5e3c 5a92 6a3b 7590 103d
00000190: 7b93 143c 0a88 003d 074e c83a 54b3 be3b
000001a0: fa71 4fbc 4a45 453c 3557 383c 3018 d23c
000001b0: f83d e03c d049 5dbc d4b3 dbbb c06f e23c
000001c0: b07f 6ebc dd54 423b a917 e9bc d648 fdbb
000001d0: c8b0 c0bc 5be1 afbc b75e 13bd 905f 223d
000001e0: 36eb 923c 478a 263d e852 ebbc 1a6c a43c
000001f0: be45 e1bb 28db 27bc a7be d23c a1e4 28bc
00000200: 461d 0d3d 0830 163c c77f c3bc c01b 103d
00000210: 7c1e 8cbc 4049 773c ec50 debc aa52 533c
00000220: 32cc 623c 83bb 843c 40a7 963b f7e0 13bc
00000230: 30ab 3d3a 358b f03c 4589 8f3c 6eee efbc
00000240: 24b2 a43c 9f03 403c fd7e 4e3c 8426 b93c
00000250: f302 1cbd f195 843b d2d4 793c 816c ea38
00000260: cde6 d53c 7c83 023d 2d9f fc3c d19f 093d
00000270: fbdb 913c a173 5fbb 6a04 583d 5288 bc3b
00000280: ae1d 57bb 8fd0 003d c205 40bc e1fb 8ebc
00000290: 208a e4bc be53 c1bc ce33 77bb 7bbe 7b3b
000002a0: cd88 413c f500 dc3c 40f8 8c3b b9e8 ab3c
000002b0: f6aa 8a3c b8d0 85bc f0cb f0bc 1ec1 e8bc
000002c0: 9f7b 4bbc c616 d7bc c377 91bc b3a3 093d
000002d0: 3a4b b8bc 7b0f d53b 9d8e 9bba 8c4b e3bb
000002e0: 1656 0b3d ae72 ef3c 0e8e bcbb 7a6f 90bc
000002f0: ffd6 0c3d c7be 1c3c 9272 04bd 9f46 b9bc
00000300: 01e1 aa3c 1108 e738 2ded 253d ddb6 19bd
00000310: 08ba 0b3c 4641 98bc b156 b13c 1ec5 0b3c
00000320: 251a 993c 8f69 66bc fd0f a5bc ebfd 82bc
00000330: cb98 823c e5ac bc3b f1a9 1d3c 928a f5bc
00000340: 780b 183d 9e5b e93c a8a1 04bd b4ba 4cbc
00000350: c53f 153d fb01 f4b7 31a3 38bc cc15 003d
00000360: 2433 0d3d 00f2 6dbc af6e acbc c39c 77bc
00000370: 7c6a 1b3d b44f 983c a66a ef3c e1df b1bc
00000380: ae54 b73c 6578 07bd 11e0 80bb 5b8e 99bc
00000390: 6e54 1f3d d802 1fbd 4e5c 1dbc b43d 3fbb
000003a0: 61c3 d23c dad6 f5bc 73b0 353c e4d6 99ba
000003b0: ef60 ae3c dcc7 f63c 07ad 063d ed20 d33c
000003c0: 4e11 b83b f99f 093d ee65 b8bb 0558 d9bc
000003d0: 31b8 c0bc e9a3 7ebc cd55 f13b f780 983b
000003e0: 3aa8 063d 41f6 333b c9bd 743c a151 c43b
000003f0: d667 fa3c 3d5a 5f3c c3e9 ef3b 94c9 8dbc
-0.03022988 0.010527151 0.0070847017 -0.003350528 0.034120537 -0.008334892 0.02915236 -0.0121198045
0.029121106 -0.0013000084 -0.004983049 0.028329616 0.002709331 0.021144029 0.011736828 0.02791565
-0.0066189272 -0.004888865 0.013603499 -0.004147202 0.009484717 -0.021190124 -0.034366004 -0.01073349
-0.020637844 -0.017411483 -0.02221093 0.0015553101 -0.014209527 -0.019309688 0.012763938 0.016860822
-0.017676124 -0.035063576 0.007286721 -0.023061132 0.022169428 0.005993344 0.015150948 -0.0049025463
0.021855447 0.0080381185 -0.01212816 0.0060285134 -0.014435976 -0.030495802 0.029851139 -0.01711133
0.03385267 -0.008580037 -0.0019860824 0.007816867 0.012719777 0.023615401 -0.006048495 0.039746385
0.030379854 0.014735636 0.03225485 0.023171574 -0.03656421 0.026603727 -0.005205343 0.021725854
0.003645532 -0.022008888 0.027906202 0.014700947 0.004470441 -0.015676625 0.02679968 -0.0025656954
-0.00036633262 0.02176398 0.022026349 0.012357706 0.026154509 -0.0120445145 0.012074945 0.012186909
0.030000973 -0.011804567 -0.031266622 -0.017557038 0.009961616 -0.023324184 0.014114977 0.0068524806
0.018311413 -0.01252772 -0.02104937 0.006902213 0.026908493 0.0039314507 0.015155166 0.029636065
-0.02013149 0.013610267 0.0035792799 0.035294015 0.009068365 0.031379737 0.0015282043 0.0058197174
-0.0126614515 0.012040446 0.0112512605 0.0256463 0.027373299 -0.013506368 -0.006704787 0.027641177
-0.01455681 0.0029652633 -0.028453665 -0.00772963 -0.023521796 -0.021469763 -0.035979 0.039641917
0.017934423 0.040659215 -0.028726056 0.020071078 -0.006874769 -0.010245122 0.025725676 -0.010308416
0.034451745 0.009166725 -0.02386464 0.035182714 -0.01710438 0.015093148 -0.027138196 0.012898127
0.013842629 0.016202694 0.0045975745 -0.009025804 0.0007235287 0.029363254 0.01752151 -0.029288497
0.020104475 0.011719613 0.012603519 0.022601373 -0.03808875 0.0040461947 0.015248494 0.000111782
0.026111031 0.031863675 0.03083762 0.03359968 0.01780509 -0.003409602 0.052738585 0.0057535553
-0.0032824087 0.031448897 -0.011720123 -0.01745409 -0.027897894 -0.023599502 -0.0037720087 0.0038413096
0.011812401 0.026855925 0.0043020546 0.020984994 0.016927224 -0.016334876 -0.02939412 -0.028412398
-0.01241961 -0.026255976 -0.017757302 0.03360338 -0.022496808 0.0065020896 -0.0011868064 -0.006936496
0.034017645 0.029229488 -0.005754239 -0.017631281 0.034384724 0.009566969 -0.032335825 -0.022616683
0.020859243 0.00011016441 0.04050939 -0.037527908 0.00852824 -0.018585812 0.021647783 0.008530883
0.018689224 -0.014063253 -0.020149225 -0.015990218 0.015941998 0.0057579153 0.009623037 -0.029973302
0.037120312 0.02848607 -0.03238073 -0.012495685 0.03643777 -2.9087989e-05 -0.011269377 0.031270787
0.0344726 -0.014523029 -0.021048872 -0.0151130585 0.03794335 0.018592693 0.029225659 -0.0217132
0.022379246 -0.0330738 -0.003932961 -0.018744638 0.038898878 -0.03882107 -0.009604527 -0.0029181065
0.02572793 -0.030009676 0.011089432 -0.0011737016 0.021286456 0.030124597 0.032879855 0.025772536
0.0056172973 0.033599827 -0.0056273853 -0.026531229 -0.02352533 -0.015542009 0.0073649646 0.0046540457
0.032875277 0.0027460011 0.014937826 0.0059911762 0.030567091 0.013632354 0.0073215677 -0.017308034

weight f4 [128, 256]
00000000: c228 55bc 2715 233c b0d0 58bd 3848 2cbd
00000010: 4ee3 38bc 4df4 81bd 3074 d03c 6a35 e53c
00000020: 88d5 0bbd 77fa 2e3d f781 4c3d 9a96 7f3d
00000030: e125 0cbd 08fd e0bc 097f 253c f567 21bc
00000040: 7610 c1bc 8162 76bd 430c e3bc 0090 b63b
00000050: d836 213d 2591 21bd 1667 b4bb 04bb 3d3c
00000060: ccfe adbc 6590 4e3d e434 493d 1697 393d
00000070: ae45 53bc e913 103d 365c ddbc 9cd6 70bd
00000080: db2c 78bd 4939 d5ba a660 7c3d 5552 a63c
00000090: 1279 25bc e74c 393d 0084 72bd dc1d 763d
000000a0: 43e2 013c b44e 433c 9e08 473d 5b7c f03b
000000b0: d855 77bd 9cda 2e3c 9737 68bc 428f 483d
000000c0: 09b9 64bd 8e87 143c b0ee f53c a693 d53c
000000d0: 3999 cebb e9b4 403c 2564 333d f96d bebc
000000e0: 7b0d 6dbd fc59 c6bc 0c3e 3a3d 03ee ca3c
000000f0: 6d3b c03a 4c35 2e3c c18d 7d3d 2444 57bd
00000100: 988f 0b3d 7eb7 55bd 350e 20bd 6d96 2a3d
00000110: 6fec 3abd adae 7dbd 0a95 c139 8f99 193d
00000120: 6476 d7bc 01bf 43b9 ca54 4dbd 4501 3b3d
00000130: baf1 8f3c 68ef 573c 9d0e 87bc 581b 3f3d
00000140: a04b 61bc 8d83 a53c 29cf fe3b bde0 8e3c
00000150: b7c3 76bd 15e3 4b3d 2ca8 5d3c b406 843c
00000160: 2625 9cbc 096b 0abd 504f 1cbd 059f 4e3c
00000170: 7745 37bd c736 0c3d 1e4a 24bc 27a1 9e3c
00000180: 645e 4d3d d11e 79bd cb5c 1e3d 192f 363d
00000190: 3f5a 21bd a03f 68bd da59 27bc 77e3 273c
000001a0: 6bfb 4cbc 43fb f23c 26af 973a ac0d 9dbb
000001b0: ba0d b33b 8109 553c 555d 2cbc 05b1 983b
000001c0: d7e1 673d 6ee6 36bc bede 173d c7dc 55bd
000001d0: 6df4 1dbd 2477 c53b 76b7 ebbc 0b7a 3e3d
000001e0: 89eb 903c e7ef 37bd dc7b 8fbc b4e7 1a3c
000001f0: 971b 003b 1b32 653d 6fc1 523d 669c c63c
00000200: 4999 683d df64 01bc 43b0 24bc e6a6 72bc
00000210: fffb 513c ecbe 10bd 1de5 8b3c 3982 71bd
00000220: 16c1 643d fa93 c5bc ec57 81bc 4ad3 cc3b
00000230: 7974 52bd 2334 5c3d fb2c bb3b 5d3f f73c
00000240: 0c46 353d d72b 7abd 0247 833d d1e6 39bd
00000250: c118 51bd e4ac 35bc 05f9 7ebd 15ca c03a
00000260: 69e0 bdbb 0343 40bd 146d 3f3d 4b58 ab3c
00000270: 571a 14bd d54c 053d 66c7 67bd eb53 883c
00000280: ede3 b2bc 802f 563d bd32 573d 1283 6bbd
00000290: 9142 f23c 0ed9 afbc 0702 863c 0faf 0bbd
000002a0: 08cc cb3b d6d3 593d d877 d03b 327b 603c
000002b0: 6ce3 58bd 2c88 ffbc 81a1 40bd 4de8 2abd
000002c0: 76e0 0b3d ffca 4e3d 326c 2cbd 831c e0bc
000002d0: a57d 613d 46c0 20bd f774 3d3d f52b febc
000002e0: 5798 2bbd 9e38 49bd 1174 0a3d f109 953c
000002f0: 336d 8cbc 4269 d0bc 511a f93c 62fc 8c3c
00000300: cc66 4d3d 3304 733d c1a9 b2bc 08a7 1dbc
00000310: c279 433d 2039 ecbc d44a febb 588b 02bd
00000320: 12ba 4d3d 8704 78bd d0ca 103d 8721 50bd
00000330: 3615 2fbd fbf7 0f3d 91d6 383c 8fb5 d6bc
00000340: 61e3 ac3c 43d1 17bd 41df 823c 5721 5f3d
00000350: d276 dd3a d279 303b 508d ff3c d347 023d
00000360: 8267 803d 6704 05bd 46b8 503c b672 323d
00000370: c751 5f3d 5148 bdbc 0103 6c3c 25d2 383d
00000380: 0db0 2dbd 3542 143d 1a7c 5a3d 9953 53bd
00000390: d9fc e13c 322e a03c 9b08 e03b eb70 25bc
000003a0: 09cf b1bc 5966 b7bb 82b5 c83c 35f8 86bc
000003b0: 22b6 30bc a121 27bd 77ad 4d3d 306c 6f3d
000003c0: 431d 7cbd 0f7e 0dbc 8524 513d f156 e8bc
000003d0: 53cf 843b fdd6 a63c 1f8e 4ebd f586 aa3c
000003e0: 4e4f 44bd b10a 47bd 8bad 6a3d f4d7 54bd
000003f0: da20 dd3c a9c9 b1bc 0d07 f53c 8fa2 023c
-0.013010206 0.009953774 -0.052933395 -0.04206106 -0.011284662 -0.06345425 0.025446028 0.027979571
-0.034139186 0.04271933 0.04992863 0.062399484 -0.03421581 -0.027464405 0.010101088 -0.009851445
-0.02356742 -0.060152534 -0.027715808 0.0055713654 0.039358944 -0.03944506 -0.005505453 0.0115802325
-0.02123966 0.050430674 0.049122706 0.045310102 -0.012895031 0.035175238 -0.027021509 -0.058798417
-0.060589653 -0.0016267683 0.06161561 0.02030293 -0.010099666 0.045239355 -0.059207916 0.06008707
0.00792748 0.01192062 0.048592202 0.007339043 -0.0603846 0.010672238 -0.01417341 0.048964746
-0.055840526 0.009065522 0.030021042 0.02607138 -0.0063048867 0.011761882 0.043796677 -0.023245798
-0.057874184 -0.02421283 0.04546933 0.024771696 0.0014666148 0.010632824 0.061902765 -0.05255522
0.03407249 -0.052176945 -0.03907605 0.041647363 -0.045635637 -0.061934162 0.0003692287 0.03749996
-0.02630157 -0.00018667804 -0.05012969 0.045655508 0.017571319 0.0131796375 -0.01648646 0.046656936
-0.013750941 0.02020433 0.0077761603 0.017441148 -0.060245242 0.04977711 0.013528865 0.016116478
-0.019060683 -0.033793483 -0.038161576 0.012611155 -0.04474398 0.034231927 -0.010027437 0.019363953
0.050138846 -0.060820404 0.038662713 0.04447851 -0.039392706 -0.056701303 -0.010214293 0.010247103
-0.012511115 0.029660827 0.0011572584 -0.0047928896 0.005464283 0.013002754 -0.010520299 0.0046597742
0.056611862 -0.011163337 0.037077658 -0.052212503 -0.03856318 0.0060261656 -0.028774004 0.046503108
0.017690437 -0.044906523 -0.017515115 0.009454656 0.0019547695 0.055955987 0.051454004 0.024244498
0.05678681 -0.007897585 -0.01005179 -0.0148102995 0.012816428 -0.035338327 0.017077023 -0.05896208
0.055848204 -0.024118412 -0.015788995 0.0062507736 -0.05138061 0.05376066 0.005712149 0.030181581
0.044256255 -0.061076965 0.06410028 -0.04538614 -0.051048998 -0.011088584 -0.062249202 0.0014708663
-0.005794574 -0.046938907 0.046734884 0.020916125 -0.036157932 0.032543976 -0.056586646 0.016641578
-0.0218372 0.052291393 0.052538622 -0.057498045 0.029572757 -0.021465804 0.016358389 -0.034102496
0.006219391 0.053180538 0.0063619427 0.013701247 -0.05295126 -0.031192861 -0.047029022 -0.041725446
0.03414961 0.05048656 -0.04209537 -0.027357345 0.055051465 -0.039245866 0.046254124 -0.03102682
-0.04189333 -0.04912626 0.033802096 0.018193217 -0.017141914 -0.025440816 0.030408056 0.01721019
0.050146863 0.059330177 -0.02180946 -0.009622343 0.04772354 -0.028835833 -0.007760385 -0.03187117
0.05022628 -0.060551193 0.035349667 -0.050813224 -0.042744838 0.035148602 0.011281625 -0.02620962
0.021104516 -0.037064802 0.015975596 0.054475155 0.0016896373 0.002692808 0.031195313 0.03180678
0.062697425 -0.0324749 0.012739247 0.043566428 0.05452135 -0.023105772 0.014405013 0.045122284
-0.042404223 0.036195952 0.05334101 -0.051593397 0.027586387 0.019553278 0.0068369634 -0.0100977225
-0.021705167 -0.0055969176 0.024500612 -0.016475776 -0.010785611 -0.040803555 0.050214257 0.058452785
-0.061551344 -0.008636012 0.05106022 -0.02836177 0.0040530353 0.020366186 -0.050428506 0.020816306
-0.047927193 -0.04859418 0.05729441 -0.05196376 0.026993204 -0.021702604 0.029910589 0.007973327

bias f4 [128]
00000000: cd4e 18bd 3089 893c b4c8 02bd 17cf 463d
00000010: 4511 2abd 75e2 29bd 72f4 32bd ea88 523d
00000020: bfe0 b73c cdba 60bc 97b1 643d 6244 2e3d
00000030: 26fb 6f3d 62a6 8f3b 1645 0ebb c289 8f3d
00000040: 87f0 99bc d4c6 92bb 6677 3fbc aacf f9bc
00000050: 7e19 eebb 9650 61bd 3a98 2e3b e060 03bd
00000060: 6cee 243d cb76 953d 8835 7cbc f763 e13c
00000070: cd33 3f3d 2461 68bd 02d7 cabc eaa1 343c
00000080: 869d 1cbc 01c9 8d3d a43f 823d c764 23bd
00000090: c13a 4dbd 097f 1cbd 441c c13c 4da7 09bd
000000a0: 8903 053d 04e8 dabb d9c2 80bd e3de 453c
000000b0: 4545 46bd b895 3b3d bf86 56bc 314b 99bc
000000c0: 83e6 343d a555 e43c 2bf7 1c3c 0fe8 73bd
000000d0: 33b4 65bd eace 943b ec89 88bc 8e91 873d
000000e0: 66ae 723c ec39 e5bc 6c86 cc3d 6916 3f3d
000000f0: 7825 083d b4d3 f83c 02ec 3a3d 34a7 75bd
00000100: c6ab 03bc e3f9 183d d11c 903c 8f34 713d
00000110: eb50 253d bcea e9bb 9372 903d bad2 c6bb
00000120: d080 8b3d 287b 0a3d d8ab d9bc 3ef6 003d
00000130: 7798 883d 367e 663d c3a4 b5bc 4ec7 28bd
00000140: c75a 0bba 4642 b23d 3ba6 26bc 9a17 46bd
00000150: 0d11 d73c 72a5 013d 0a10 13bd 9345 c7bb
00000160: 5b04 23bd bd70 dd3b 2eb4 cbbc ac35 afbc
00000170: b6b2 a0bb 9e14 863d 05da 553b 1b3f c43c
00000180: f826 c63c 7ec8 bcbb b0dd e2bc f053 6e3d
00000190: 8db9 f03a 92e8 873a 3f59 b2bc b2da 093d
000001a0: 7463 d4bc d8ef abbc 527c 6e3d 50b0 273d
000001b0: 5517 a03d e65e 903d d111 633c dfef 6abd
000001c0: 7c48 4abb 1334 9a3d 0b0a 4dbd 0843 283d
000001d0: 9069 f33c 8b28 38bc 7089 363d c5b4 55bd
000001e0: 0bdc d9bc be35 4f3d a08f 17bd 7df1 05bc
000001f0: d7cc 053d 68ac 433d d8d5 d03c 41e1 07bd
-0.037184525 0.016789049 -0.031929687 0.04853734 -0.041520376 -0.041475732 -0.043690152 0.051400103
0.022446034 -0.013716412 0.055833425 0.042545684 0.058589123 0.004383848 -0.002170866 0.07008697
-0.01879145 -0.0044792686 -0.011686182 -0.03049453 -0.0072662225 -0.055008493 0.0026641027 -0.03207481
0.04026644 0.072980486 -0.015393622 0.027513487 0.04668026 -0.056733266 -0.024760727 0.011024931
-0.009559041 0.06923104 0.06359795 -0.03989103 -0.05010486 -0.038207088 0.023573048 -0.033606816
0.032474075 -0.0066804904 -0.06287164 0.012077066 -0.048405904 0.04579708 -0.013093649 -0.018712612
0.044165146 0.02787287 0.009580414 -0.05954748 -0.056080054 0.0045412676 -0.016667329 0.06619559
0.014812088 -0.02798172 0.099865764 0.04665223 0.033238858 0.030374385 0.04563523 -0.05997391
-0.008036559 0.037347686 0.017591866 0.058888014 0.040360373 -0.007138578 0.07053103 -0.006067601
0.068116784 0.033808857 -0.0265712 0.031484835 0.06669705 0.056272708 -0.022173291 -0.041205697
-0.0005315956 0.08704047 -0.010171468 -0.048362352 0.026253248 0.03165192 -0.035903968 -0.006081292
-0.039799076 0.006757824 -0.02486619 -0.021387897 -0.0049041165 0.06546901 0.003263117 0.023955872
0.024188504 -0.005761205 -0.0276936 0.058185518 0.0018365845 0.0010368994 -0.021771071 0.03365583
-0.02592633 -0.02098839 0.05822403 0.04093963 0.0781695 0.070493504 0.013859228 -0.057357665
-0.0030865958 0.075294636 -0.050058406 0.04107955 0.029713422 -0.011240135 0.044564664 -0.05217435
-0.026594182 0.050588362 -0.037002206 -0.008175251 0.032666054 0.04777184 0.025492594 -0.033173803

weight f4 [10, 128]
00000000: fa6f da3d 9e22 a8bd 9e0f 31bd 4214 9f3d
00000010: aa7e 83bc a78b 59bd 6eb1 32bc 9c3b d93c
00000020: f69b e7bd b9be 003c 1105 30bd 8e41 6f3d
00000030: 8720 dbb9 4d95 5bbd 139b 9bbc a7dc 4d3d
00000040: 37aa e9bc 1409 a23d bb54 763d 4c8b 2cbc
00000050: 3f4d 1ebe 2c1d 2abb c450 e53c 4039 c5bd
00000060: b590 d7bc f821 0a3e 5916 153d 7504 e23d
00000070: ddeb 9e3d 208d abbd 73b9 d1ba 63c6 543d
00000080: 47b9 a7bd fa1b 0abc 75d3 6b3d 99da 5abd
00000090: 7395 19bd e6c0 4fbc 8af3 e83d 1eee e2bc
000000a0: c443 433d 5ae0 303d 2769 f43d ec05 f13c
000000b0: a992 b5bd 96f1 1bbd 2c9f 893d fca0 a2bc
000000c0: 2947 d73d 92f7 ecbb 87fa a3bd 78ab cdbb
000000d0: 1cd3 b43d b049 303d f8db 92bc b963 a4bd
000000e0: 3dc1 2ebd f884 9abd d9f6 51bc 4cd5 903d
000000f0: 2dd4 b6bd 54b4 e43d 6324 82bd 3995 c23d
00000100: ff85 be3d d40c cc3d 2a4d 653d acd5 a1bd
00000110: cd44 06be f53f e9bd 7375 abbd 2fd7 15be
00000120: e68f dfbd d885 50bd 6468 513d 29c1 ea3c
00000130: 360f 703d 2d68 a73d bb52 bb3d c387 cfbd
00000140: dff2 823c 84c1 aebd 0dcb 933d 1822 9f3d
00000150: 225e fb3d 7679 67bb eaed af3c 0485 81bc
00000160: e97a 77bd 121c 0e3d 50b1 f2bd 1967 113d
00000170: 1a67 803c d949 6f3d a7b9 0b3d 4cb8 9f3d
00000180: 0419 e0bd ec06 2a3a 4e84 a9bc 7f0f 0c3d
00000190: a142 283c e207 2fbd 8516 89bd 6343 84bc
000001a0: 4803 31bd 2bd3 953d 3de4 d03d 3a6b 53bd
000001b0: 8ddc 42bd 6bb3 ce3d d0b8 58bd ab5d be3d
000001c0: d54f 8b3d becc 49bc 4185 f13c 0902 3f3c
000001d0: 5849 0a3d 6702 ed3d ccee 4cbd 399d bb3d
000001e0: 3081 0ebd 9b6e 903d d1ec fa3d af13 513d
000001f0: a57c 663d 5bcd 48bd 41de a23d 52e0 b9bc
00000200: 29c4 a03d ce86 21bd ca80 b4bc b30d 8e3d
00000210: cc94 c2bd c7b4 793c 3128 b13d 74f5 023e
00000220: b600 13be 685b 4c3d cc89 6abc c8b5 4a3d
00000230: 8931 d7bd 785d 673d 815f 1cbd 9dc5 143e
00000240: c85e 3dbe aaed 8cbd ffed a8bd f2fc 08bc
00000250: 83ab 16be d4b7 013d 9442 31bd 9648 8cbd
00000260: 8c44 c9bd ba0f 153e 8fbd f73d bc3c 6c3c
00000270: 9f41 733c f851 9fbc 5eaa 09be fcf5 bb3d
00000280: 997f 16bd d4ac 7cbd 87a2 8f3d 12f5 fcbc
00000290: d809 803d fa3a 503a b6f7 afbd 79cf 5fbc
000002a0: e9f9 bb3d a720 5a3d 500c 03be fb30 683c
000002b0: 2833 753c e013 c8bc b650 00bd 6009 043c
000002c0: d1f1 763d a4ed 03bd 10fc 0c3e b19d 873d
000002d0: 4494 49bd 79f6 4abd 0880 72bd ac1a c03a
000002e0: ef96 15be 2d10 b2bd a10c 133e 9252 713c
000002f0: f2f8 343c 12fd a73c 4254 303d ed3c 92bd
00000300: d19f 9d3d f2f0 a53d 5adc 813c d4cc 603d
00000310: 7e55 22bd 1ace 2fbe 29f0 143d 2a1e 1bbe
00000320: 9bc7 fb3c a221 903d 7324 e43d 7d83 a2bd
00000330: 5490 053e 9b4e 6c3d b5e5 a5bd 9cdb 17bd
00000340: ce6a a63d adfc edbd 7118 8bbd a51d 49bd
00000350: ae13 853c 9190 433c 18aa 8cbd 606a 23bd
00000360: fe44 023e cd6f 053d 68d1 95bc bc04 a8bd
00000370: 33e2 b33d 19ef 033e e1d9 14bc 4c53 193e
00000380: 4f5d e8bd 8d53 39bd 5f29 363d bb4d fc3d
00000390: 0b3a 0d3c 5b82 bfbd 6095 8d3d 83c8 cabd
000003a0: 3c28 75bb 635b b33a b15e 763d 0436 9dbd
000003b0: c232 9c3d f64c c1bd 1aa9 41bd 9bad 013d
000003c0: 2f7b 003e da4f 4a3d 4b9c 0c3d 1168 debc
000003d0: 8523 92bd 0772 e93c a831 83bd b818 143d
000003e0: 4a12 bebb 19fd 003e 7004 bdbd 03d5 813d
000003f0: 0ff6 e1bb 7509 e9bc b9d1 8a3c a932 47bc
0.10665889 -0.08209728 -0.043227784 0.07767536 -0.01605161 -0.0531117 -0.01090656 0.026517682
-0.11309044 0.007857972 -0.04297358 0.058412127 -0.0004179517 -0.05360918 -0.018994844 0.05025926
-0.028523548 0.07911888 0.0601394 -0.010531258 -0.15459155 -0.002595733 0.027992614 -0.0963006
-0.026314119 0.1348952 0.036398266 0.11036006 0.07759831 -0.08376527 -0.0016000703 0.05194701
-0.08189636 -0.008429522 0.057574708 -0.053431127 -0.03749604 -0.012680268 0.113745764 -0.027701434
0.04767205 0.04318271 0.11934119 0.02942177 -0.08865864 -0.03807219 0.06719813 -0.019852154
0.105116196 -0.007231661 -0.08006769 -0.006276544 0.088293284 0.043039024 -0.017927155 -0.08026833
-0.042664755 -0.07544893 -0.012815201 0.07071933 -0.08927188 0.11167207 -0.063545965 0.09501118
0.093029015 0.09963384 0.055981793 -0.07902083 -0.13112183 -0.11389152 -0.08372011 -0.14632867
-0.10916118 -0.050908893 0.051124945 0.028656559 0.058608256 0.08174167 0.09146639 -0.10133316
0.01598495 -0.08533004 0.07216463 0.07770175 0.12273814 -0.00353202 0.021475751 -0.015810497
-0.06041995 0.03469474 -0.11850226 0.035498712 0.015674163 0.058420036 0.0341126 0.07798824
-0.10942271 0.0006486017 -0.02069297 0.034194466 0.010269792 -0.042732127 -0.066937484 -0.016145414
-0.04321602 0.07315668 0.10199783 -0.05161593 -0.047573615 0.10092815 -0.052910626 0.092952095
0.06802336 -0.012316881 0.029482486 0.0116582 0.033761352 0.11572724 -0.050032422 0.09160847
-0.03479117 0.07052346 0.122522004 0.051044162 0.056271214 -0.049023967 0.07952548 -0.022689972
0.078499146 -0.0394352 -0.022034068 0.06936207 -0.09501037 0.015240855 0.08650244 0.12788945
-0.1435574 0.04989186 -0.01431508 0.049489766 -0.10507495 0.056485623 -0.038177017 0.14528508
-0.18493187 -0.06881268 -0.08248519 -0.008361088 -0.14713864 0.031669453 -0.043276384 -0.06849782
-0.098275274 0.1455678 0.12096702 0.014418777 0.014847188 -0.019448265 -0.13443896 0.09177777
-0.03674278 -0.06168826 0.070134215 -0.030878577 0.062518775 0.00079433585 -0.08592169 -0.013660305
0.09178526 0.053253796 -0.12797666 0.014171834 0.01496581 -0.02442354 -0.031326972 0.008058876
0.060289208 -0.032209054 0.13768029 0.06621874 -0.049213663 -0.04955146 -0.05920413 0.0014656386
-0.14608358 -0.086944915 0.14360286 0.014729159 0.011045681 0.020506416 0.043049105 -0.07140527
0.07696498 0.08102597 0.015852142 0.05488284 -0.039632313 -0.17168465 0.036361847 -0.15148225
0.030734828 0.07037665 0.11139765 -0.07935236 0.13043338 0.05769215 -0.08100454 -0.03707467
0.0812584 -0.1162046 -0.06791771 -0.049100537 0.016244736 0.011936323 -0.0686838 -0.03989637
0.12721631 0.032577325 -0.01828833 -0.08204028 0.087833785 0.12884177 -0.0090851495 0.14973181
-0.11345922 -0.045245696 0.04447305 0.123195134 0.008619796 -0.09351035 0.06913257 -0.09901526
-0.0037408015 0.0013683852 0.0601489 -0.07676318 0.07626869 -0.09438507 -0.04728041 0.031659704
0.12546991 0.04939256 0.03432874 -0.027149232 -0.07135681 0.028496755 -0.064059556 0.036156386
-0.00580052 0.12596549 -0.09229362 0.06339457 -0.0068957875 -0.028446892 0.016945707 -0.012158074

bias f4 [10]
00000000: c4b6 2ebc cc99 8c3a 09e5 c63a 0271 51bb
00000010: e92e 60bd fa6b 513e 592d 8abd 3afc cf3d
00000020: e153 cb3b 942a 56bc
-0.010663692 0.0010726987 0.0015174459 -0.0031958227 -0.054732237 0.20451346 -0.06746931 0.1015553
0.0062050675 -0.013071675
