Trabajo Practico 2/models/conf_1.pt (torch, 441470 bytes, 6 tensors)

weight f4 [128, 784]
0	0x3d0191e2	0.031633265
1	0xbd0f1754	-0.034934357
2	0x3c7ee4f9	0.015557521
3	0xbc4bde12	-0.012443082
4	0xbd0c6266	-0.034273528
5	0x3cc8f0b1	0.024528833
6	0xbd2a10fc	-0.041520104
7	0xbd3878bf	-0.045037027
8	0xbd1aa80f	-0.03775793
9	0xbd589d35	-0.0528843
10	0xbd365943	-0.04451872
11	0x3a07aae5	0.00051753066
12	0x3d8161e7	0.063175015
13	0x3c1bfc7f	0.009520649
14	0x3a353d60	0.00069137476
15	0x3d8bd032	0.068268195
16	0xbc20985a	-0.009801948
17	0xbcf5269c	-0.029925637
18	0xbccde3ea	-0.025133092
19	0xbdc1029b	-0.09424325
20	0xbdf962d8	-0.12177056
21	0xbcda8c94	-0.026678361
22	0xbc3f82a6	-0.011688864
23	0x3c942d81	0.018088104
24	0xbccf8924	-0.025333948
25	0x3c97773f	0.018489478
26	0x3c8c04b2	0.017092083
27	0xbc6d4b9a	-0.014483357
28	0x3d0aba23	0.03386892
29	0x3c9b211e	0.01893669
30	0xbc6f4558	-0.014603935
31	0xbc116121	-0.008873255
32	0xbd54faf3	-0.051997136
33	0x38252bbc	3.9379796e-05
34	0xbd407546	-0.04698684
35	0xbd851906	-0.064989135
36	0xbc8880a7	-0.016662909
37	0x3d722a25	0.059122223
38	0xbb24209a	-0.0025043846
39	0x3ca74ecd	0.020423317
40	0x3dc963a0	0.09833455
41	0x3d31acc4	0.043377653
42	0x3da74002	0.081665054
43	0x3d7e1666	0.06203308
44	0x3d04c73c	0.032416567
45	0xbbf4e5b2	-0.007473671
46	0xbc20769f	-0.0097939065
47	0xbd75c061	-0.05999792
48	0xbdef1e07	-0.11675649
49	0x3bdb7149	0.0066968543
50	0xbc90a8c6	-0.017658602
51	0xbd055eab	-0.032560986
52	0xbd64948e	-0.055805735
53	0xbc1f02f7	-0.009705297
54	0xbb59ad34	-0.003321481
55	0xbd1cab5d	-0.038249362
56	0x3c9e06e4	0.019290395
57	0xbc9efa62	-0.019406501
58	0xb93c50d8	-0.00017959194
59	0x3b814794	0.0039453004
60	0xbc02ebd3	-0.007990795
61	0xbc938687	-0.018008484
62	0xbac590a0	-0.0015073009
63	0xbd386e83	-0.045027267
64	0xbd493d61	-0.0491308
65	0x3d9ca94a	0.07649477
66	0x3839534c	4.4185013e-05
67	0x3c8be321	0.017076077
68	0x3bf92404	0.0076031704
69	0x3d64a2de	0.055819385
70	0x3d77d673	0.06050725
71	0xbcab302c	-0.020896994
72	0x3b96b4f2	0.004599207
73	0xba473052	-0.0007598448
74	0x3d1b4d46	0.03791549
75	0xbcfa2bb3	-0.030538416
76	0xbd8e0c6b	-0.06935962
77	0xbcfa418a	-0.03054883
78	0x3d12532d	0.035723854
79	0x3bf15863	0.007365273
80	0xbc8d3fc7	-0.017242325
81	0xbd52d8b5	-0.0514762
82	0x3c1c3bfb	0.009535785
83	0xbc3ac345	-0.011399095
84	0xbcda0731	-0.026614757
85	0xbb4df526	-0.0031426637
86	0xbb841d9a	-0.004031849
87	0xbc79bfdd	-0.015243498
88	0xbc9eff80	-0.019408941
89	0xbc191c08	-0.009345062
90	0xbd90733b	-0.070532285
91	0xbca89736	-0.020579915
92	0x3c819c9b	0.015821746
93	0x3d3c3a11	0.045953814
94	0xbcaa6ca1	-0.020803751
95	0x3af8056d	0.0018922515
96	0x3d0a7db8	0.0338113
97	0x3cb8e311	0.022569211
98	0x3d5ff74b	0.054679196
99	0xbb31f63a	-0.002715482
100	0x3d016f64	0.03160037
101	0x3b8ed639	0.0043590334
102	0x3cde38ab	0.02712663
103	0xbd13be27	-0.036070015
104	0x3c69e846	0.01427657
105	0xbcdbebca	-0.026845831
106	0xbb49f737	-0.0030817518
107	0xbcabaa92	-0.020955358
108	0xbcdc9445	-0.02692617
109	0xbb1b2a4c	-0.0023676334
110	0xbc1f073d	-0.009706316
111	0xbb98f092	-0.00466735
112	0x3cdb28b1	0.026752802
113	0xbcbbca44	-0.022923596
114	0xbd28bef3	-0.04119773
115	0xbd10b84b	-0.035332005
116	0x3b65dc1b	0.003507382
117	0xbba217fa	-0.004946706
118	0xbbbc1bac	-0.0057406034
119	0x3d4b7df5	0.04968067
120	0x3bc9d5d4	0.0061595235
121	0x3c2c87c4	0.010530416
122	0x3d19a45a	0.037510253
123	0xbbb7ab89	-0.0056051654
124	0xbd03d657	-0.032186832
125	0xbd4b56f4	-0.04964347
126	0x3c9c0aa6	0.019048046
127	0x3ccb6847	0.024829997
128	0xbbd2c2a6	-0.0064318953
129	0xbca09128	-0.019600466
130	0x3b3ce07d	0.002882033
131	0xbc0613ef	-0.0081834635
132	0xbd13088b	-0.03589682
133	0xbb70dafc	-0.0036751619
134	0x3ceb8381	0.02874923
135	0xbd21039b	-0.03931008
136	0xbd1ad9ad	-0.037805248
137	0xbd708842	-0.058723696
138	0x3c826782	0.015918497
139	0xbd14d088	-0.036331683
140	0x3b0cf4d1	0.0021508227
141	0xbc82e5e2	-0.015978757
142	0xbc556e7d	-0.013026831
143	0xbb0d02c0	-0.0021516532
144	0xbbbb7a61	-0.005721376
145	0xbc50b062	-0.012737365
146	0xbcc48a2c	-0.023991667
147	0x3cdf4cde	0.027258333
148	0x3d56e283	0.052462112
149	0x3cc70eb5	0.024299005
150	0x3cf8b6fd	0.030360693
151	0xbd6153d5	-0.05501159
152	0xbd024575	-0.03180452
153	0xbd6bb2be	-0.05754351
154	0xbdb0d316	-0.086340114
155	0x3ccb79a7	0.024838282
156	0xbc4700ed	-0.012146217
157	0xbd906b2d	-0.07051692
158	0x3bc8e393	0.0061306446
159	0x3bdf2473	0.006809765
160	0xbcef5917	-0.029217286
161	0xbc12c9c9	-0.008959242
162	0x3ca98627	0.020693852
163	0xbb7d8073	-0.0038681298
164	0xbd38e917	-0.045144167
165	0xbb59c232	-0.0033227322
166	0xbd39bbcd	-0.045345116
167	0x3c0291d5	0.007969339
168	0xbd0eb87d	-0.03484391
169	0xbd2d962f	-0.042379554
170	0xbcbc0c4c	-0.022955082
171	0x3bdffaa1	0.006835297
172	0x3c7e1980	0.015509009
173	0xbc9e00a0	-0.019287407
174	0xbc373e4a	-0.011184284
175	0xbca732b7	-0.020409925
176	0xbb15a736	-0.0022835261
177	0x3ca14a01	0.019688608
178	0xba0c6a69	-0.00053564325
179	0xbc1d828e	-0.009613646
180	0xbc99566d	-0.018717969
181	0xbdaa7e5b	-0.08324882
182	0xbcebd140	-0.028786302
183	0xbd34177f	-0.04396772
184	0x3cc2c607	0.023776067
185	0x3b38028d	0.0028077692
186	0x3d15c709	0.036566768
187	0x3a1529b9	0.0005690116
188	0xbb2a73d8	-0.002600899
189	0x3bbfb061	0.0058498834
190	0xbca6b9aa	-0.020352203
191	0xbc88e4c7	-0.016710652
192	0x3be527c4	0.006993266
193	0xbd9b29fd	-0.07576368
194	0xbb968d1b	-0.004594458
195	0xb9dcdf19	-0.0004212789
196	0x3baa8208	0.005203489
197	0xbc88d51b	-0.01670318
198	0xbd1814c7	-0.03712919
199	0xbc911c25	-0.017713616
200	0x3af7afdf	0.0018897018
201	0xbd84dbc4	-0.064872295
202	0xbc7ce05e	-0.015434353
203	0xbc1c7ff5	-0.009551992
204	0x3cfbe561	0.030749025
205	0x3cca7541	0.024714114
206	0x3d022128	0.0317699
207	0x3d8da844	0.0691686
208	0x3d143c95	0.036190588
209	0x3bd0dd9f	0.0063740755
210	0x3bb6f4d6	0.005583386
211	0x3d2872bf	0.041125055
212	0x3cd14ab5	0.025548318
213	0xbd221a4e	-0.039575867
214	0xbcc8f45a	-0.024530578
215	0x3d06aea1	0.032881383
216	0x3b939449	0.004503761
217	0x3d1bdd04	0.038052574
218	0xbd1b43a8	-0.03790632
219	0xbb03ef7d	-0.002013176
220	0x3badb3d1	0.005300977
221	0xbd35cf06	-0.044386886
222	0xbd0f31ff	-0.03495979
223	0xbb816101	-0.0039483313
224	0xbcffb986	-0.031216394
225	0x3c4cbfa1	0.01249686
226	0xbc828b3f	-0.015935538
227	0xbd3b78f7	-0.045769658
228	0xbb1554ee	-0.0022786218
229	0xbd1865d2	-0.03720648
230	0xbcb91a59	-0.022595571
231	0x3cd843e4	0.02639956
232	0xbd02e6bf	-0.031958338
233	0x3cc04e5c	0.023474865
234	0xbc1f94da	-0.009740079
235	0xbc8e9414	-0.017404594
236	0x3bb3bcb6	0.0054851426
237	0xbc34e101	-0.011039973
238	0xbce6065d	-0.028079206
239	0x3c95e13f	0.018295882
240	0xbcb1b58a	-0.02169301
241	0xbd83d85c	-0.06437752
242	0xbd2c9a43	-0.042139303
243	0x3ac811e0	0.0015264116
244	0x3b7d0f18	0.0038613733
245	0x3ac6f18f	0.0015178191
246	0xbd13d88b	-0.036095183
247	0xbbab2e88	-0.005224053
248	0xbbac88bd	-0.005265324
249	0xbd036f48	-0.032088548
250	0xbd0f46fc	-0.034979805
251	0xbcf98982	-0.030461077
252	0xbcb82027	-0.022476269
253	0x3b27ca63	0.002560281
254	0xbd5b5a58	-0.053552955
255	0x3c400eb5	0.011722256

bias f4 [128]
0	0xbaaf8e52	-0.0013393855
1	0xbe10e44b	-0.14149587
2	0x3ebcbdf6	0.3686368
3	0x3e57fb13	0.21091871
4	0x3e18343b	0.14863674
5	0xbd8c0764	-0.06837347
6	0xbbac1b90	-0.005252309
7	0x3de90e2f	0.113796584
8	0x3e25d841	0.16195776
9	0x3e6a1a49	0.2286159
10	0x3d3e275c	0.046424255
11	0x3cc29098	0.023750588
12	0x3ce24d5e	0.027624782
13	0xbc27666e	-0.010217292
14	0x3ecac978	0.39606833
15	0x3b000cee	0.0019538957
16	0x3e83c1cb	0.2573379
17	0x3e677663	0.22603755
18	0x3d8e62e5	0.069524564
19	0xbcc3b4c4	-0.023889907
20	0xbd08f801	-0.03343964
21	0x3e3944ac	0.18092602
22	0x3e86eb10	0.26351213
23	0xbe0bbfdb	-0.13647406
24	0x3e1fd9d2	0.15610436
25	0x3c1b9e2c	0.00949816
26	0xbb0e804c	-0.0021743951
27	0xbd9cea0a	-0.07661827
28	0x3da9a087	0.08282571
29	0xbdda59d6	-0.10661666
30	0x3814de1e	3.5492812e-05
31	0x3d99e053	0.075134896
32	0xbdd24ee9	-0.10268957
33	0x3ce7093f	0.028202651
34	0x3d80011a	0.0625021
35	0xbe3ae87d	-0.1825275
36	0x3da44fee	0.08023058
37	0xbd0da4fc	-0.03458117
38	0x3e1351b9	0.14386643
39	0xbd2637a0	-0.040580392
40	0x3d7d03c2	0.06177116
41	0xbc110302	-0.008850815
42	0x3e261e39	0.16222467
43	0x3cbf8646	0.023379456
44	0x3d61928d	0.055071402
45	0xbd3bad1d	-0.04581939
46	0x3e120c58	0.14262521
47	0xbbddaae5	-0.006764757
48	0x3dda6a47	0.10664802
49	0x3dce4738	0.10072178
50	0x3d8a6607	0.067577414
51	0xbdcbe4be	-0.099557385
52	0x3d640782	0.055671223
53	0x3b84b8e5	0.0040503615
54	0x3de74444	0.112923175
55	0x3d33d412	0.043903418
56	0x3e2817cb	0.16415326
57	0x3a8850f6	0.0010400105
58	0x3d9816d5	0.0742623
59	0x3d9dab5c	0.076987
60	0x3de8c348	0.11365372
61	0xbe71122c	-0.23542088
62	0x3e366cd0	0.17814946
63	0x3e0b4e17	0.13604008
64	0x3e5032fe	0.20331952
65	0x3cbb3213	0.022851026
66	0x3d49b2de	0.049242847
67	0x3e24a680	0.1607914
68	0x3d7399b3	0.05947275
69	0x3cb996dd	0.022654945
70	0x3d8c1e5f	0.0684173
71	0x3e0d2ddc	0.13787025
72	0x3dba9a28	0.09111434
73	0x3e8fb8d0	0.28070688
74	0x3dd67bee	0.104728565
75	0xbd589dcd	-0.052884866
76	0x3d8b625b	0.06805869
77	0xbdc7c58c	-0.09754476
78	0x3e2657e8	0.16244471
79	0xbdaf1a26	-0.08549909
80	0x3e7ffe42	0.24999335
81	0x3c993295	0.018700877
82	0x3cf09dd2	0.02937213
83	0xbe5d0743	-0.21584801
84	0x3e65ec7e	0.22453496
85	0xbde3840d	-0.11109171
86	0x3cb6375d	0.022243196
87	0x3d593e02	0.05303765
88	0x3e12df48	0.14342988
89	0x3db703ab	0.089362465
90	0x3d9938c8	0.07481533
91	0xbd12e0a2	-0.035858758
92	0x3bf08bf7	0.007340904
93	0x3e3a9a4e	0.18222925
94	0xbc602a12	-0.013681905
95	0x3e3f448e	0.18678495
96	0xbe6ad269	-0.22931828
97	0xbce79f4e	-0.028274205
98	0x3e88d78b	0.26726946
99	0xbd444ddf	-0.047925826
100	0x3d19924b	0.03749303
101	0xbc8db188	-0.017296568
102	0xbdaf851d	-0.08570311
103	0xbbc19c1a	-0.0059085013
104	0x3e342f9e	0.1759629
105	0x3e289ec3	0.16466813
106	0x3bfccf7a	0.007715163
107	0x3d66d919	0.056359384
108	0x3dda205a	0.10650702
109	0x3aea204f	0.0017862412
110	0xbc0ab446	-0.008465832
111	0xbd71fc29	-0.05907837
112	0x3e053c34	0.13011247
113	0x3dd75603	0.10514452
114	0x3d9ae1c2	0.07562591
115	0x3e34f396	0.17671046
116	0x3dd1f5f7	0.10251992
117	0xbe77bce0	-0.24193144
118	0x3dadd3f9	0.08487696
119	0x3d9db1cf	0.0769993
120	0x3e044835	0.1291817
121	0x3c2b2d21	0.010447771
122	0x3ddbb6e1	0.10728241
123	0xbe955f14	-0.291741
124	0xbe7c2af2	-0.24625757
125	0x3da80ba0	0.08205342
126	0x3cb60d2a	0.022223074
127	0x3dd7854d	0.10523472

weight f4 [64, 128]
0	0xbe254089	-0.161379
1	0x3e24ef00	0.16106796
2	0xbdc10055	-0.094238915
3	0xbcbed812	-0.02329639
4	0x3e525392	0.20539692
5	0x3d300338	0.04297182
6	0x3de1822b	0.11011156
7	0xbe0b3a06	-0.13596353
8	0x3c90f504	0.017694958
9	0x3d974acd	0.07387314
10	0x3e1bd4ba	0.15217867
11	0xbcece45f	-0.02891749
12	0x3d8a7d5d	0.067621924
13	0xbdf7754c	-0.120829195
14	0xbde1507d	-0.1100168
15	0xbc408de8	-0.011752583
16	0xbdcc9932	-0.09990157
17	0x3d029c48	0.031887323
18	0x3b5e25c4	0.0033897022
19	0x3d3daed5	0.04630931
20	0xbca07107	-0.019585146
21	0x3d6ce8f1	0.057839338
22	0x3ed6e892	0.41974312
23	0xbe3b02aa	-0.18262735
24	0x3ed8b9bb	0.423292
25	0xbd1a1f87	-0.037627723
26	0x3b97c010	0.00463105
27	0xbddcb759	-0.10777158
28	0x3e79e791	0.24404742
29	0xbe6ec988	-0.23319066
30	0xbd8858f5	-0.06657592
31	0x3e11c95c	0.14236969
32	0xbe0bff65	-0.13671644
33	0xbd8ea3bb	-0.06964823
34	0x3ce7b6ed	0.028285468
35	0x3dec7e54	0.11547533
36	0x3d920acb	0.07130965
37	0x3db4627b	0.08807846
38	0xbd1c64d4	-0.038182095
39	0x3c10ee75	0.008845915
40	0xbe5100d4	-0.20410472
41	0xbdd8a7c6	-0.10578875
42	0xbdeb2a1e	-0.114826426
43	0xbd05504c	-0.03254728
44	0xbcf3d3fe	-0.029764172
45	0xbdcf1837	-0.101120405
46	0x3d68ab44	0.056803957
47	0xbda5b69e	-0.08091472
48	0xbb04b13c	-0.0020247241
49	0x3d353d2b	0.044247787
50	0x3c8f7ec1	0.017516496
51	0xbe46a929	-0.19400467
52	0xbcfdb409	-0.030969637
53	0xbcb9d877	-0.022686226
54	0xbd2c585b	-0.04207645
55	0xbd9b48bc	-0.07582232
56	0xbd5a64c7	-0.053318765
57	0xbd7ffdaa	-0.062497772
58	0xbde055c6	-0.1095386
59	0x3c2d9282	0.010594012
60	0xbd1ff746	-0.039054178
61	0x3d3251f2	0.04353518
62	0xbd8b1f0f	-0.06793033
63	0xbde8d9a9	-0.113696404
64	0xbd41c2d6	-0.04730495
65	0x3cd24756	0.025668781
66	0xbdcb11d1	-0.099155076
67	0x3eb0475c	0.34429443
68	0xbdf0f46b	-0.11765369
69	0xbd46744d	-0.048450757
70	0xbd0728ff	-0.03299808
71	0x3c287454	0.010281641
72	0xbd58e26b	-0.052950304
73	0x3be41cc9	0.0069614393
74	0x3caee240	0.021348119
75	0xbc346dc3	-0.011012497
76	0x3de157d9	0.11003084
77	0x3d6d6dab	0.057965916
78	0x3e2e13a5	0.16999681
79	0x3e57dd36	0.21080479
80	0x3ccbc7da	0.02487557
81	0xbe0d967e	-0.1382694
82	0x3cba671e	0.022754248
83	0xbd189011	-0.037246767
84	0xbc892e84	-0.016745813
85	0x3d8d46ec	0.06898293
86	0xbd00dd12	-0.03146083
87	0xbd925bf6	-0.071464464
88	0xb97c55d7	-0.0002406457
89	0xbdfe9c68	-0.12432176
90	0xbdc0f0a3	-0.09420898
91	0xbe932fca	-0.28747398
92	0x3dd5d690	0.10441315
93	0x3bd82ccc	0.006597137
94	0x3d827b30	0.063711524
95	0x3dbbc35b	0.091681205
96	0xbdcbd2c8	-0.09952313
97	0x3d9db7ac	0.07701048
98	0xbca93bf3	-0.020658469
99	0x3dd56dd1	0.104213364
100	0xbe4fdf2f	-0.20299982
101	0x3e1fa8d8	0.15591753
102	0xbd6be671	-0.057592813
103	0xbd5aa207	-0.053377178
104	0xbc847b87	-0.016172184
105	0x3d1a531c	0.037676916
106	0xbcda4438	-0.026643857
107	0x3c156023	0.009117159
108	0x3e05dba4	0.13072067
109	0xbd70221d	-0.058626283
110	0x3e717081	0.23578073
111	0xbcae0984	-0.021244772
112	0x3dacf225	0.08444623
113	0xbe449617	-0.1919788
114	0xbdcc301c	-0.09970114
115	0xbd4c512b	-0.049882095
116	0xbc984a87	-0.018590225
117	0x3e263b10	0.16233468
118	0x3e23c4e4	0.15993077
119	0xbd85ecc6	-0.065393016
120	0xbcaa83c2	-0.02081478
121	0xbbad13fd	-0.005281924
122	0xbd4b3961	-0.049615268
123	0x3dd538af	0.10411202
124	0xbd888fe2	-0.066680685
125	0xbdb8f85b	-0.09031745
126	0xbd2404a0	-0.040043473
127	0xbdd70c5a	-0.10500403
128	0xbd8f1d22	-0.069879785
129	0xbd027776	-0.031852208
130	0x3cabfc31	0.020994278
131	0x3d943d53	0.07238259
132	0xbd7ab6ba	-0.061209418
133	0xbd556729	-0.052100334
134	0xbe204326	-0.15650615
135	0x3e12e0b5	0.14343531
136	0x3e241aeb	0.16025893
137	0x3c38708f	0.011257305
138	0x3d6647d8	0.05622086
139	0x3c43cfc9	0.011951395
140	0xbce2f3a0	-0.02770406
141	0x3e0cd283	0.13752179
142	0xbced31cb	-0.028954407
143	0x3d3bb7eb	0.045829695
144	0xbdc48b32	-0.09596862
145	0xbe0d717a	-0.13812819
146	0x3dca6fe8	0.09884626
147	0xbdabea24	-0.08394268
148	0x3d11262f	0.035436805
149	0x3e0a721f	0.13520096
150	0x3d3c00c9	0.045899186
151	0x3da223c0	0.07916975
152	0xbd3e9bfb	-0.046535473
153	0xbd0a07e8	-0.033698946
154	0xbc0348d0	-0.008012965
155	0x3bc44b05	0.0059903883
156	0xbc0da19e	-0.00864449
157	0x3da36d03	0.07979777
158	0x3c8ea5e8	0.017413095
159	0x3dde2b19	0.10848064
160	0xbdaa1d74	-0.08306399
161	0xbdb422d1	-0.08795703
162	0xbd7d3e01	-0.06182671
163	0x3cd617b8	0.026134357
164	0xbd0b6628	-0.03403297
165	0xbd89d0a0	-0.06729245
166	0x3c98826d	0.01861688
167	0xbe2a290f	-0.16617225
168	0xbcb96801	-0.0226326
169	0xbe2c5d17	-0.16832386
170	0xbce7b2c1	-0.028283479
171	0xbc1e8e6f	-0.0096775135
172	0xbd9e467c	-0.077282876
173	0xbe2a2469	-0.16615452
174	0x3d1d4fed	0.0384063
175	0xbdb0d06b	-0.086335026
176	0x3e2942cd	0.16529389
177	0x3c00e5c9	0.007867285
178	0x3d086cc6	0.03330686
179	0xbcf8d6d6	-0.03037588
180	0x3c077a13	0.008268851
181	0x3c643215	0.013927956
182	0xbe0c83ba	-0.13722125
183	0x3ccdaec1	0.025107743
184	0xbd1caaf4	-0.03824897
185	0x3dec4320	0.115362406
186	0xbb5b699e	-0.00334797
187	0x3cb95bf1	0.022626849
188	0xbdb5d050	-0.08877623
189	0xbd9bdf38	-0.07610935
190	0xbb4f1423	-0.0031597696
191	0xbe1ccb11	-0.15311839
192	0x3cfc9b8a	0.030835886
193	0xbb08d26e	-0.002087738
194	0x3d34fb85	0.04418518
195	0xbd5b7a8a	-0.05358366
196	0xbcc04936	-0.02347241
197	0xbb3bd374	-0.0028659971
198	0xbdd60ee5	-0.1045206
199	0xbe2a18dc	-0.16611046
200	0xbe067ba7	-0.13133107
201	0x3dc29970	0.09501922
202	0x3dc312dc	0.095250815
203	0x3d56e2e1	0.052462462
204	0xbd454ed8	-0.048170894
205	0xbd40e332	-0.04709167
206	0xbd95a02a	-0.073059395
207	0x3d0b7bf4	0.034053758
208	0x3d8469b6	0.06465475
209	0x3c3b7331	0.011441038
210	0xbd882e32	-0.06649436
211	0xbddb3f1b	-0.10705396
212	0x3dba1f76	0.09088032
213	0xbe0c2afc	-0.13688272
214	0xbd1f0223	-0.038820397
215	0x3d2459cf	0.04012471
216	0x3cf0606c	0.029342853
217	0xbde45b75	-0.111502565
218	0x3d51540a	0.051105537
219	0xbca26fb1	-0.01982865
220	0xbde2aeb0	-0.11068475
221	0x3add8c1f	0.0016902721
222	0xbe260f8b	-0.16216867
223	0xbd8665c6	-0.065623805
224	0xbdf805ee	-0.12110506
225	0x3d0306bf	0.031988855
226	0x3e6a67a6	0.22891101
227	0x3d225fdf	0.03964221
228	0x3d8f1d5f	0.06988024
229	0xbc166fa9	-0.009181895
230	0xbcca54c2	-0.024698619
231	0xbd3008e9	-0.042977247
232	0xbb90ea90	-0.0044224933
233	0x3e101f5d	0.14074464
234	0x3c4a9835	0.012365391
235	0x3cd1f6f6	0.025630455
236	0x3dfcdea0	0.1234715
237	0xbe2bc4ef	-0.16774343
238	0xbc58e075	-0.0132371085
239	0x3d6d1efd	0.05789088
240	0xbcc356a9	-0.023845034
241	0xbdcbf825	-0.09959439
242	0x3e0b4381	0.1359997
243	0xbccaf1ea	-0.024773557
244	0x3d70f9b7	0.058831897
245	0xbbf66e31	-0.00752046
246	0x3e59472c	0.21218556
247	0xbc850f19	-0.01624255
248	0xbccef89f	-0.025265036
249	0xbde19741	-0.110151775
250	0xbe15bc21	-0.14622547
251	0x3a856ebb	0.0010180095
252	0xbdcebaf4	-0.10094252
253	0xbd8c088f	-0.0683757
254	0x3db350fd	0.08755682
255	0xbd69bc0b	-0.057064097

bias f4 [64]
0	0x3e844c0f	0.25839278
1	0x3e7ed6d2	0.24886635
2	0xbd91a0c8	-0.07110745
3	0xbc93a35d	-0.018022234
4	0x3db9204b	0.090393625
5	0x3cfcb8de	0.03084987
6	0x3d77591b	0.060387712
7	0x3e4eefd9	0.20208682
8	0x3e99ed17	0.30063698
9	0xbd02ac27	-0.03190246
10	0x3e88971b	0.26677784
11	0x3e91f005	0.28503433
12	0x3e456ff4	0.19280988
13	0x3d467fe7	0.04846182
14	0x3dcb579e	0.09928821
15	0x3e81239e	0.25222486
16	0x3ded6049	0.115906306
17	0x3e0c0359	0.13673152
18	0x3dc1f2af	0.09470116
19	0x3e81b814	0.25335753
20	0x3caab7c6	0.020839583
21	0x3db3c954	0.08778635
22	0x3e348eb1	0.17632557
23	0x3d458e3e	0.048231356
24	0x3e14272c	0.14468068
25	0x3d5ab8fa	0.053399064
26	0x3e15df1b	0.14635889
27	0x3e1402bc	0.14454168
28	0x3def136d	0.11673627
29	0x3e7f23d1	0.24916007
30	0x3d85d127	0.06534033
31	0x3de9c20a	0.11413963
32	0x3e6384c3	0.22218613
33	0x3d200ecd	0.039076615
34	0x3db41c36	0.08794443
35	0x3e9f6c62	0.31137377
36	0x3e19770d	0.1498682
37	0x3e1ec869	0.15506138
38	0x3cfa8dcc	0.030585192
39	0x3e249edb	0.16076224
40	0x3e08afd1	0.13348319
41	0x3e401c18	0.18760717
42	0xbb874152	-0.00412766
43	0x3ce08723	0.027408188
44	0x3e8b37d9	0.27191046
45	0x3da7e491	0.081978925
46	0x3e66813a	0.22510234
47	0x3dac4572	0.08411683
48	0x3e5c5427	0.21516477
49	0x3e1a8df9	0.15093221
50	0x3e23a5eb	0.15981261
51	0x3d203270	0.0391106
52	0x3def4ba1	0.11684347
53	0x3e57cacb	0.21073453
54	0x3e2a2fa8	0.16619742
55	0x3dcc65a5	0.09980325
56	0x3df1f8c3	0.11815026
57	0x3e6f8bb4	0.23393136
58	0x3e12094d	0.1426136
59	0x3ddd10a7	0.10794192
60	0x3de81af9	0.113332696
61	0x3e5738aa	0.2101771
62	0x3dc2b3d3	0.09506955
63	0x3d746f5d	0.059676517

weight f4 [10, 64]
0	0x3eebc4e4	0.46048653
1	0xbd3ab641	-0.045583967
2	0x3d88bcc2	0.06676628
3	0xbd1afb3f	-0.037837263
4	0xbeb43df6	-0.35203522
5	0x3e92f2a2	0.2870074
6	0x3d9584a2	0.07300688
7	0xbe968d1e	-0.2940454
8	0xbf1bf70e	-0.6092385
9	0x3e607b0e	0.21921942
10	0x3ef878a8	0.48529553
11	0x3d0031b7	0.03129741
12	0xbee38550	-0.44437647
13	0xbf066ccf	-0.5250978
14	0xbd75cd68	-0.060010344
15	0x3f227a6d	0.63468057
16	0x3eab6c46	0.33481044
17	0xbe8ef391	-0.279202
18	0xbe6895a4	-0.22713333
19	0x3e945d68	0.28977513
20	0x3ed99296	0.4249465
21	0x3eac56ed	0.3366007
22	0xbeb2d017	-0.34924385
23	0x3e14a1da	0.14514866
24	0x3ec2c4a6	0.38040656
25	0x3e96b6c6	0.2943632
26	0xbe4cf1f8	-0.20014179
27	0x3eab28aa	0.33429462
28	0xbee2eb8e	-0.4432034
29	0x3e8b55d6	0.27213925
30	0x3e9c49c0	0.30525017
31	0x3e8d7d2c	0.2763456
32	0xbe24e9fb	-0.16104881
33	0x3dbd748e	0.09250747
34	0xbecffd72	-0.4062305
35	0xbf0cccd3	-0.55000037
36	0xbe109b1a	-0.14121667
37	0x3e89e11d	0.2692956
38	0xbd87ca0d	-0.06630335
39	0x3e91d7c7	0.28484938
40	0xbe471ac9	-0.19443811
41	0xbec2bfc1	-0.38036922
42	0x3e961b20	0.2931757
43	0xbe461e1a	-0.1934742
44	0x3f1277e7	0.57214206
45	0x3ebaecdb	0.3650883
46	0x3e2e662c	0.17031163
47	0xbe6b27da	-0.22964421
48	0xbe9a02b7	-0.30080196
49	0x3ebae3f1	0.3650203
50	0x3e6f0dc3	0.23345093
51	0x3d0c6bdb	0.034282546
52	0x3c5eef51	0.013606862
53	0x3d30ee13	0.043195795
54	0xbe41761b	-0.1889271
55	0xbeca4c92	-0.39511544
56	0x3f109a9c	0.56485915
57	0xbeeaf978	-0.45893455
58	0x3e8a42e8	0.2700417
59	0x3eb7356a	0.3578294
60	0x3e5f7ead	0.21825667
61	0xbec2b2d8	-0.38027072
62	0xbe0ffb20	-0.1406064
63	0xbe425df4	-0.18981153
64	0x3f1320a6	0.5747169
65	0xbdca8706	-0.09889035
66	0xbc7c1006	-0.01538468
67	0xbb7bd5ff	-0.0038427112
68	0x3ec115ad	0.3771185
69	0x3f0b8cb4	0.5451157
70	0xbdcf474f	-0.10121023
71	0x3eb2c127	0.3491299
72	0xbd03a13b	-0.032136183
73	0x3f137559	0.57600933
74	0x3f02e3eb	0.51129025
75	0x3e1e0c0a	0.1543428
76	0xbe81c6de	-0.25347036
77	0xbe9cee86	-0.3065073
78	0x3d1c2fef	0.03813165
79	0xbed3828e	-0.41310543
80	0xbf1b4916	-0.60658395
81	0xbe8eb731	-0.2787414
82	0x3d687ebb	0.056761485
83	0xbe4ff728	-0.20309126
84	0x3e64ae8d	0.22332211
85	0xbe6c9e6f	-0.23107313
86	0x3bc54b6a	0.006020953
87	0x3e3888e9	0.18020977
88	0xbebdf2a5	-0.37099186
89	0xbea8b75f	-0.329524
90	0x3f3aa4a3	0.72907466
91	0xbefd692f	-0.4949431
92	0x3eb625bc	0.35575664
93	0x3e94d7a6	0.29070777
94	0x3d551882	0.052025326
95	0x3f2769f1	0.6539603
96	0xbe1fa6a9	-0.1559092
97	0x3f0df276	0.5544809
98	0xbe4a836e	-0.19776699
99	0xbe5983c5	-0.21241672
100	0xbe890531	-0.26761773
101	0x3efb6edf	0.49108025
102	0x3de19957	0.110155754
103	0x3ed770f6	0.4207837
104	0xbe99f61f	-0.30070588
105	0x3e8e3490	0.27774477
106	0x3e895848	0.26825166
107	0x3dbdde2b	0.09270891
108	0xbe13b457	-0.14424263
109	0xbf0da5cd	-0.55331117
110	0xbee5c4fa	-0.44876844
111	0xbdb091a2	-0.08621527
112	0xbe9673a7	-0.2938511
113	0xbee17ec7	-0.44042036
114	0x3e953e74	0.2914921
115	0xbdc892f8	-0.09793657
116	0xbc54efe9	-0.012996652
117	0xbc8473de	-0.016168531
118	0xbcbbc72f	-0.022922127
119	0xbdd91fb5	-0.10601751
120	0xbeee1083	-0.46496972
121	0x3e787f10	0.2426722
122	0xbd9c9cc4	-0.07647088
123	0xbed9781b	-0.42474446
124	0x3eb773cc	0.35830534
125	0x3eac113d	0.33606902
126	0xbb4e5cd1	-0.0031488428
127	0xbe822c19	-0.2542427
128	0xbf2b5b96	-0.66936624
129	0xbdf3e453	-0.11908784
130	0xbdc188d7	-0.09449928
131	0xbe087ff0	-0.13330054
132	0xbe9b16e5	-0.30290905
133	0x3e37e499	0.17958297
134	0xbdf5b768	-0.119978726
135	0x3f531dbd	0.8246725
136	0xbe82d004	-0.25549328
137	0xbde637ef	-0.11241137
138	0xbf181206	-0.594025
139	0xbebf2f9e	-0.37341017
140	0xbf1d958e	-0.6155633
141	0xbedda5d8	-0.4329059
142	0xbe1253ba	-0.14289752
143	0x3f09ea0b	0.53872746
144	0x3e8e03a1	0.27737144
145	0x3e7ae741	0.24502279
146	0xbe230317	-0.15919147
147	0x3e0a0b5f	0.134809
148	0xbeb3ab88	-0.35091805
149	0x3ea3b084	0.31970608
150	0xbf69db30	-0.9135008
151	0x3dd7f171	0.10544098
152	0xbeb5066b	-0.3535646
153	0xbeadbcff	-0.33933255
154	0x3f0aedad	0.54268914
155	0x3e30c28c	0.17261714
156	0x3e984e3e	0.29747194
157	0x3f19ff54	0.60155225
158	0x3f0d3d0c	0.55171275
159	0x3e95b3a8	0.2923863
160	0xbea45be0	-0.32101345
161	0x3e4d75da	0.20064488
162	0x3e85506a	0.26037914
163	0xbeab6ceb	-0.33481535
164	0xbf270ef2	-0.6525718
165	0xbf067ac7	-0.52531093
166	0xbdf260bc	-0.11834857
167	0x3e2ccc32	0.1687477
168	0xbe786631	-0.24257733
169	0x3e2a379d	0.16622777
170	0x3e8d0da3	0.27549466
171	0xbd7e6934	-0.06211205
172	0x3eb4212d	0.3518156
173	0x3e9e5846	0.30926722
174	0x3f37152b	0.71516675
175	0xbf0925fc	-0.53573585
176	0x3ecdc399	0.40188292
177	0xbea5dccd	-0.3239502
178	0x3e4f2175	0.20227607
179	0xbd29af93	-0.041427206
180	0x3ccab415	0.024744073
181	0xbe170dec	-0.14751405
182	0xbe95956e	-0.29215568
183	0x3e95a25d	0.29225436
184	0x3e481f38	0.19543159
185	0xbed48185	-0.41505066
186	0x3e946012	0.28979546
187	0x3e91f441	0.28506663
188	0x3f0052c1	0.5012627
189	0x3eb96f16	0.36217564
190	0x3e6280f6	0.22119507
191	0x3e8438f4	0.25824702
192	0x3edd3776	0.43206376
193	0x3e255fac	0.16149777
194	0x3d5e9188	0.05433801
195	0xbdfcd2fb	-0.12344929
196	0x3ed7db5f	0.42159554
197	0xbf1d320d	-0.61404496
198	0x3d2caec9	0.042158876
199	0xbedd5fe2	-0.43237215
200	0x3f282a3a	0.6568943
201	0xbed2ac5a	-0.4114712
202	0x3eebfebb	0.4609278
203	0xbd7079b1	-0.058709804
204	0xbe839517	-0.25699684
205	0x3d1c923c	0.038225397
206	0xbe163963	-0.14670329
207	0xbe950cd6	-0.29111356
208	0x3e58ac8e	0.21159574
209	0xbf181cd4	-0.5941899
210	0x3ed5a0e8	0.41724324
211	0x3e0240cb	0.12720029
212	0xbe6c7956	-0.23093161
213	0x3e6fa339	0.23402108
214	0x3de973f9	0.11399073
215	0x3e8ef1ce	0.27918857
216	0x3e839cac	0.2570547
217	0xbf53310d	-0.8249672
218	0xbebf04d0	-0.3730836
219	0xbefe1524	-0.49625504
220	0x3e904ace	0.2818207
221	0x3e716725	0.23574503
222	0xbf04c0ec	-0.51856875
223	0xbf0ebac0	-0.5575371
224	0xbed1f8c8	-0.41010118
225	0xbebca53d	-0.36844817
226	0x3e301b8c	0.17198008
227	0x3f41563a	0.75522196
228	0xbec80dc2	-0.39072996
229	0x3edafc0a	0.42770416
230	0xbe2fc77d	-0.17165942
231	0x3e972ba5	0.29525486
232	0x3f20284a	0.62561476
233	0x3e3164ba	0.1732358
234	0x3e8a63cb	0.2702926
235	0xbdb1bb08	-0.086782515
236	0xbefacb5a	-0.4898327
237	0x3e8e1371	0.27749208
238	0x3eae99fe	0.34101862
239	0xbe3662a3	-0.17811064
240	0xbeb1eeed	-0.34752598
241	0x3e97170c	0.2950977
242	0x3e6bfad8	0.23044908
243	0x3ca4bbab	0.020109018
244	0x3d8de7cb	0.069289766
245	0xbe33d8e2	-0.17563203
246	0xbe944e04	-0.2896577
247	0xbe69b9b5	-0.22824748
248	0x3e9a3348	0.3011725
249	0x3f008352	0.5020038
250	0x3e7876cf	0.24264072
251	0x3e9987ec	0.29986513
252	0x3eb323df	0.34988305
253	0x3eca6712	0.3953176
254	0xbdbdb060	-0.092621565
255	0x3e8f9eb0	0.28050756

bias f4 [10]
0	0xbe095271	-0.13410355
1	0x3c98c57e	0.01864886
2	0xbd79c25e	-0.06097638
3	0x3da33c46	0.079704806
4	0xbee5f7bf	-0.44915578
5	0x3f486a10	0.7828684
6	0x3d8330c2	0.06405784
7	0x3ea3148f	0.31851622
8	0xbe791ca5	-0.24327333
9	0xbf123307	-0.5710911
