Trabajo Practico 2/models/conf_1_model.pth (torch, 441850 bytes, 6 tensors)

weight f4 [128, 784]
0	0x390fcddc	0.00013714231
1	0x3cfcef30	0.030875772
2	0xbcff0ba1	-0.031133475
3	0xbcf47201	-0.029839518
4	0x3c1960d5	0.009361465
5	0x3ce224bc	0.027605407
6	0x3b8fac5c	0.0043845605
7	0xbd001e2b	-0.03127877
8	0x3cf49452	0.02985588
9	0xbc930605	-0.017947206
10	0xbd0cdad3	-0.034388375
11	0xba8ce16a	-0.0010748331
12	0x3ce9f5d6	0.028559607
13	0x3b1f50dd	0.0024309673
14	0xbc3a9a84	-0.011389378
15	0x3ccde830	0.02513513
16	0xbb44f020	-0.0030050352
17	0x3c16dafe	0.009207485
18	0x3bf8eaa4	0.0075963307
19	0x3ccf9274	0.025338389
20	0xbbb65dee	-0.0055653965
21	0xbc363b22	-0.011122497
22	0x3c15c49c	0.009141114
23	0x3d0eba93	0.0348459
24	0xbbdd3912	-0.006751188
25	0x3a8b94b3	0.0010649174
26	0xbc83c703	-0.016086107
27	0x3bd01810	0.0063505247
28	0xbc5b8009	-0.013397225
29	0xbc0caf6d	-0.008586747
30	0xbc83e552	-0.01610056
31	0xb55d89b7	-8.2529317e-07
32	0x38b822a2	8.7802546e-05
33	0x3a76ce04	0.0009414854
34	0x3cdde2a3	0.027085608
35	0xbcccc79e	-0.024997529
36	0x3cb52775	0.022113541
37	0xbcfd4355	-0.030915895
38	0xbc95f56a	-0.0183055
39	0xbc840563	-0.01611585
40	0x3c0841c3	0.00831646
41	0xbc659983	-0.014013651
42	0x3d15adca	0.03654269
43	0x3c8cdbc3	0.017194634
44	0x3c240d52	0.010012941
45	0xbb0118fa	-0.0019698725
46	0x3cf23f86	0.029571306
47	0x3ce7d45a	0.0282995
48	0x3c7778a4	0.015104447
49	0x3c8295b6	0.015940528
50	0xbcb45fda	-0.022018362
51	0x3c953a9a	0.01821642
52	0xbcf53b5f	-0.029935537
53	0xba07e9dc	-0.0005184689
54	0xbcd2fb71	-0.025754662
55	0xbc6b8535	-0.014375021
56	0xbbd8455d	-0.0066000656
57	0xbce7c47e	-0.028291937
58	0xbd0ad7e5	-0.0338973
59	0xba96c13b	-0.0011501679
60	0xbc021f0c	-0.007941972
61	0xbb946717	-0.004528891
62	0xbcc3d312	-0.023904357
63	0x3c5af453	0.0133639155
64	0x3d1298d9	0.035790298
65	0x3c4a64be	0.01235312
66	0x3d2d8b8c	0.04236941
67	0x3cefda0e	0.029278781
68	0x3d308fb0	0.04310578
69	0x3d22b0bd	0.039719332
70	0x3cf54116	0.029938262
71	0xbb086823	-0.0020814023
72	0x3d2c6f22	0.042098172
73	0xbc616337	-0.013756565
74	0x3c533a9e	0.012892393
75	0xb9d074bb	-0.00039759823
76	0x3c855288	0.016274706
77	0x3cb28621	0.021792473
78	0xbc5df297	-0.013546607
79	0xbcf24850	-0.029575497
80	0xbc10b16d	-0.008831364
81	0x3c330a59	0.01092776
82	0x3cab1762	0.020885173
83	0xbcf84740	-0.030307412
84	0x3d0f7f0e	0.03503328
85	0x3b794edd	0.003804139
86	0x3c68a3cc	0.0141992085
87	0xbc8261a1	-0.015915694
88	0x3c69719a	0.014248276
89	0xbc818a3c	-0.015812986
90	0x3c0bcedb	0.008533205
91	0x3caa8832	0.020816896
92	0xbc91f1d9	-0.017815517
93	0x3d13971f	0.036032792
94	0x3cf61d21	0.030043187
95	0xbb8ba947	-0.004262123
96	0xbcb61702	-0.022227768
97	0xbc092c01	-0.008372308
98	0x3d1cefb1	0.038314525
99	0xbc05eb02	-0.008173706
100	0xbbc6fabb	-0.00607237
101	0xbc9d92d9	-0.019235061
102	0xbbbd13d5	-0.0057701864
103	0xbcfeb4f4	-0.031092145
104	0xbce6dd68	-0.028181747
105	0x3c99f310	0.018792659
106	0xbd0c5421	-0.03425992
107	0xbc993629	-0.018702583
108	0x3cf1bb1e	0.02950817
109	0xbb580051	-0.0032959173
110	0xbc167781	-0.009183765
111	0xbce9cf5b	-0.028541258
112	0xbce4b621	-0.027918877
113	0x3c9f82a9	0.019471483
114	0xbcfb4d2b	-0.030676445
115	0xbcd49f21	-0.025954785
116	0x3b77c9e8	0.0037809554
117	0xbbc241df	-0.0059282626
118	0xbcc460a6	-0.023971867
119	0x3cccd84a	0.025005478
120	0x3cfb1b06	0.030652534
121	0x3aa23544	0.0012375494
122	0x3d0ecfc7	0.03486612
123	0x3d25a2e9	0.040438566
124	0x3d20d629	0.03926674
125	0x3d307586	0.04308083
126	0xbbd6acec	-0.0065513756
127	0xbb896c57	-0.0041938233
128	0x3d03ee20	0.032209516
129	0xba35294f	-0.00069107575
130	0xbc9fe1df	-0.019516883
131	0x3d1d2c1c	0.038372144
132	0x3cd5af4e	0.026084568
133	0xbaf64c21	-0.0018790999
134	0x3c55b42f	0.013043447
135	0xbd28061f	-0.041021463
136	0xbba11ad4	-0.0049165282
137	0xbcfe6ea6	-0.03105862
138	0x3c833a8c	0.016019128
139	0x3d0eee44	0.034895197
140	0xbcb10e68	-0.021613315
141	0x3bc3ab72	0.0059713656
142	0xbcda6edc	-0.02666419
143	0xbb8f7f8a	-0.0043792175
144	0xbb12509e	-0.0022325884
145	0x3abbfdd9	0.001434262
146	0xbcdae296	-0.026719373
147	0x3cde89d3	0.02716533
148	0x3cd03f14	0.025420703
149	0x3cd35a6c	0.025799952
150	0x3c8107ab	0.015750727
151	0xbcb056e6	-0.021525811
152	0xbc32d123	-0.01091412
153	0x3c414e93	0.011798519
154	0x3c31531a	0.010823036
155	0x3d243c1d	0.04009639
156	0xbb84c57b	-0.004051862
157	0xbc60f0aa	-0.013729254
158	0x3c17199d	0.009222415
159	0x3c9c87fa	0.019107807
160	0x3b853ede	0.0040663322
161	0x3c09473d	0.008378801
162	0xbd00cf28	-0.03144756
163	0x3ca2b12a	0.019859869
164	0xbcd40e1d	-0.025885636
165	0xbd0e4b75	-0.03473993
166	0xbba0649a	-0.004894805
167	0xbc4e4933	-0.012590694
168	0x3b40a7ae	0.002939682
169	0xbca5e4f5	-0.020250777
170	0xbd002913	-0.03128917
171	0xbc067c6a	-0.008208374
172	0x3c821d54	0.015883125
173	0x3cf123ac	0.029435955
174	0x3c027bc4	0.007964078
175	0x3cefddfe	0.029280659
176	0x3bc5b7bf	0.006033867
177	0xb93d2557	-0.00018038355
178	0x3d268a6d	0.040659357
179	0x3a85d452	0.0010210371
180	0xbc21f001	-0.009883882
181	0x3cea3c44	0.02859319
182	0x3ca85d8e	0.020552423
183	0x3d06e2c8	0.03293112
184	0x3d082949	0.033242498
185	0xbc8766c0	-0.016528487
186	0xbcb80c77	-0.022466881
187	0x3ce097f3	0.027416205
188	0x3b6a1d0b	0.0035722877
189	0x3c14e0b1	0.009086774
190	0xbb0c4b92	-0.0021407348
191	0xbd1e99ca	-0.038720883
192	0x3c2c89f6	0.010530939
193	0x3cc5411b	0.024078896
194	0xbc95225a	-0.018204857
195	0x3d084910	0.033272803
196	0xbd085031	-0.0332796
197	0x3ac8d310	0.0015321691
198	0x3c85745b	0.016290834
199	0x3ce46b0b	0.027883073
200	0x3ccb6f98	0.024833485
201	0x3ca7c302	0.02047873
202	0xbcd4cf09	-0.025977628
203	0xbc7a628d	-0.015282285
204	0xbc3cc921	-0.011522562
205	0xbc8f0c95	-0.017462054
206	0x3d1df284	0.03856136
207	0xbcb1d4b9	-0.02170788
208	0x3ce1639d	0.02751332
209	0x3d06e932	0.032937236
210	0x390fc188	0.00013709639
211	0x3d1dfd51	0.03857166
212	0xbcae9752	-0.02131239
213	0xbc0e09c9	-0.008669325
214	0x3c661129	0.014042177
215	0xbc8584ce	-0.016298678
216	0x3c8cf82c	0.017208181
217	0x3c136526	0.008996284
218	0x3c918dfc	0.017767899
219	0xbbac9c7e	-0.0052676788
220	0x3c16c59f	0.00920239
221	0x3cbc62d1	0.022996338
222	0xbcfa9a86	-0.03059126
223	0xbd0a101e	-0.033706777
224	0xbbe44a72	-0.0069668824
225	0x3bdcf6d3	0.006743291
226	0xbd10e386	-0.035373233
227	0xbcefcfff	-0.029273985
228	0x3caf797b	0.021420231
229	0x3d168a13	0.03675277
230	0xbbd8cef9	-0.00661647
231	0xbcc30ae9	-0.023808913
232	0xbc8c03a9	-0.017091589
233	0xbcbbcccd	-0.022924805
234	0x3d307c5f	0.04308736
235	0x3d183e24	0.037168637
236	0x3d0eba59	0.034845684
237	0x3d1372ce	0.03599816
238	0x3cdaf55f	0.02672833
239	0x3c8cea89	0.017201679
240	0x3c49586d	0.012289149
241	0xbc3a4bbf	-0.011370598
242	0x3cde34e4	0.02712483
243	0x3c771810	0.015081421
244	0x3c5f54cc	0.013631057
245	0x3a64c700	0.0008727163
246	0x3c89125c	0.016732387
247	0xba8e4a10	-0.0010855813
248	0xbcc91d36	-0.024550062
249	0xbd1ecb2d	-0.038767982
250	0xbc5db0c2	-0.013530912
251	0x3cea5ad7	0.028607769
252	0xbcd767da	-0.026294637
253	0xbaccd0dc	-0.001562621
254	0xbc21f794	-0.009885687
255	0xbce7d54b	-0.028299948

bias f4 [128]
0	0xbca0429f	-0.019563017
1	0xbbb7c053	-0.0056076436
2	0xbc5dfa6b	-0.013548474
3	0xbca4e931	-0.020130726
4	0x3d165bd6	0.036708675
5	0x3c855dd9	0.016280102
6	0x3d060ea1	0.032728795
7	0xbcf9a264	-0.030472942
8	0xbc226877	-0.009912602
9	0x3c9d2c45	0.019186148
10	0x3ada6731	0.0016662834
11	0xbc38d569	-0.01128135
12	0xbb73d53c	-0.0037205955
13	0xbca12da8	-0.01967509
14	0x3c35fe37	0.011107973
15	0xbc6f197d	-0.014593479
16	0x3b549f3f	0.003244355
17	0xbc44c23c	-0.0120092
18	0x3cd08337	0.025453193
19	0xbc41fdb6	-0.011840275
20	0x3bdbf514	0.006712565
21	0xbc3fe23b	-0.011711652
22	0x3d4a8290	0.04944092
23	0x3cdd6b81	0.0270288
24	0xbcc6ea83	-0.024281746
25	0x3badfa97	0.0053094137
26	0x3ac98ad6	0.0015376459
27	0x3c48ca92	0.012255328
28	0x3b8554cc	0.0040689465
29	0xbc7f2328	-0.015572347
30	0x3c5222af	0.012825652
31	0x3c551b82	0.013007047
32	0x3d02211d	0.03176986
33	0xbcbfa8fd	-0.02339601
34	0x3d11df8f	0.035613593
35	0xbc6aa9c8	-0.014322706
36	0xbcb528b3	-0.022114133
37	0x3b100ef4	0.002198157
38	0xbca1b8d1	-0.019741448
39	0xbcfe3e25	-0.031035492
40	0x3c05d23a	0.008167798
41	0x3cbbf300	0.02294302
42	0xbb7ffb50	-0.0039059706
43	0x3ba7add0	0.0051171556
44	0xbbb5cc34	-0.0055480246
45	0xbb6bb673	-0.0035966903
46	0xbce9d54d	-0.028544093
47	0x3c5e96d8	0.013585769
48	0xbce9ccd4	-0.028540052
49	0xbd01a919	-0.031655405
50	0xbca5c37f	-0.020234821
51	0xbce01993	-0.027355945
52	0x3c6e14c4	0.014531318
53	0xbc9f0f14	-0.01941637
54	0xbc6c0798	-0.014406107
55	0x3cb88a43	0.022526866
56	0x3b2e6e38	0.0026615988
57	0xbc3785d7	-0.0112013435
58	0xbc142ac2	-0.009043397
59	0xbb4ae30b	-0.0030958082
60	0x3cf308f7	0.02966736
61	0x3c369496	0.011143824
62	0x3ba9ce0f	0.005182035
63	0x3caea196	0.021317285
64	0x3d1161ad	0.03549354
65	0xbc6e29dc	-0.014536347
66	0xbc84c238	-0.016205892
67	0x3c4220b4	0.011848617
68	0xbb3ce26d	-0.0028821484
69	0x3cf96d2c	0.030447565
70	0x3c2f714d	0.010708165
71	0x3bc7fd2a	0.0061031776
72	0xbcca5c62	-0.024702255
73	0x3bb6b722	0.0055760304
74	0xb9ab0629	-0.0003262025
75	0xbcb1c4f1	-0.021700354
76	0x3baa24c5	0.0051923716
77	0x3d070d96	0.03297194
78	0xbbc38274	-0.005966479
79	0x3c8c4b34	0.017125703
80	0x3c901b94	0.017591275
81	0xbc7554a5	-0.014973794
82	0x3c5736c2	0.013135614
83	0xbc747983	-0.014921549
84	0x3c1e6d41	0.009669603
85	0x3bbb93ca	0.005724405
86	0x3d1cbee0	0.03826797
87	0x3d2aef28	0.041731983
88	0x3d1d7354	0.038440064
89	0x3ca8b4c0	0.020594
90	0x3aa4bce7	0.0012568504
91	0xbd006ccc	-0.031353757
92	0xbaf77293	-0.001887875
93	0xbb9311a7	-0.0044881883
94	0x3bf2565c	0.0073955487
95	0x3cf7e80e	0.03026202
96	0x3ceff8f5	0.029293517
97	0x3b9c02be	0.004761069
98	0x3cf9346e	0.030420508
99	0xbb84bc84	-0.004050793
100	0xbb4ca773	-0.0031227737
101	0x3b2a780c	0.0026011495
102	0xbb889c7c	-0.004169045
103	0x3ce74e55	0.028235594
104	0x3cbc00f6	0.022949677
105	0xbca6f5b9	-0.020380842
106	0x3c07e8d4	0.008295257
107	0xbcf8b7a4	-0.030361004
108	0x3ce01fb2	0.027358864
109	0x3cf8804e	0.030334618
110	0x3c9f10f9	0.019417273
111	0x3c1e9385	0.009678726
112	0x3cc341fc	0.023835175
113	0x3d08c328	0.03338924
114	0x3cc6d790	0.02427271
115	0x3beddb5c	0.0072588157
116	0xbccf6829	-0.025318222
117	0x3d14918c	0.036271617
118	0xbcac1648	-0.021006718
119	0x3c740f14	0.014896173
120	0x3c9cc92d	0.019138897
121	0x3c2ba749	0.010476896
122	0x3cb5f1ea	0.02221008
123	0x3ba28d76	0.004960711
124	0xbcb8500d	-0.022499109
125	0x3c9be461	0.019029798
126	0xbc6b5e17	-0.0143656945
127	0xbd021cc3	-0.03176571

weight f4 [64, 128]
0	0x3dc6e003	0.097106956
1	0x3cd5aa71	0.02608225
2	0x3d74281d	0.059608568
3	0xbda5ad88	-0.08089739
4	0x3af0e790	0.0018379558
5	0xbda534ed	-0.080667354
6	0xbdb17707	-0.08665281
7	0xbb8463de	-0.0040402254
8	0x3da9ed7b	0.08297249
9	0xbd3c7a29	-0.04601494
10	0xbc2c0eae	-0.010501547
11	0x3d32fa3f	0.043695685
12	0x3d3a4feb	0.045486372
13	0x3d6536c2	0.055960424
14	0xbd484a19	-0.04889879
15	0x3d04a4f4	0.032383874
16	0xbd9e0ded	-0.077175
17	0x3d1af575	0.037831742
18	0x3db87496	0.09006612
19	0x3ca38663	0.019961542
20	0x3d164260	0.036684394
21	0xbd0c7696	-0.03429278
22	0xbda3c55f	-0.0799663
23	0xbc9a5597	-0.01883964
24	0xbda8752b	-0.08225473
25	0x3dab97d2	0.08378567
26	0xbdb3fbeb	-0.08788284
27	0xbb035022	-0.0020036777
28	0xbb278582	-0.0025561755
29	0x3db26549	0.08710725
30	0xbd07853c	-0.033086047
31	0xbda090f5	-0.07840148
32	0x3d476a4b	0.048685353
33	0xbd612348	-0.054965287
34	0x3d526e7a	0.05137489
35	0xbd918cc6	-0.071069285
36	0x3d4e65af	0.05038994
37	0x3d6badd1	0.05753881
38	0x3c8f10b6	0.017464023
39	0xbdafcfb9	-0.08584542
40	0xbd418e12	-0.04725463
41	0x3c87ef82	0.016593698
42	0xbc1938c3	-0.009351912
43	0xbd24a18f	-0.040193137
44	0x3c40e0ac	0.011772316
45	0xbc6aee11	-0.014338986
46	0x3d87770a	0.06614502
47	0xbd1e36bc	-0.038626418
48	0x3c33f85d	0.010984507
49	0xbcf25667	-0.029582215
50	0xbd29d19a	-0.041459657
51	0xbd8e5e3b	-0.06951567
52	0xbd8be6f2	-0.06831159
53	0xbcc1d673	-0.023661828
54	0x3db91245	0.09036688
55	0x3cedfbc5	0.029050717
56	0xbd8a31ae	-0.06747757
57	0x3d34f2b1	0.04417676
58	0x3c5b1ad8	0.013373099
59	0x3d3ca1c1	0.046052698
60	0xbae8ed70	-0.0017770957
61	0x3d9784f8	0.07398409
62	0x3bd3a35e	0.006458684
63	0x3d5c820f	0.05383497
64	0x3cc64b21	0.024205746
65	0xbcc04e6b	-0.023474893
66	0x3dc156cf	0.094403856
67	0x3c079001	0.008274079
68	0xbcedb9ce	-0.029019263
69	0x3cc74285	0.024323711
70	0xbc1d7865	-0.009611224
71	0x3d20e9d4	0.039285496
72	0x3d9ea9a2	0.07747199
73	0xbd5d8055	-0.054077465
74	0xbd45da68	-0.04830399
75	0x3d94a4b7	0.07257979
76	0x3c77283c	0.015085276
77	0xbd681efd	-0.056670178
78	0xbd02f735	-0.031974036
79	0xbcd699fc	-0.026196472
80	0x3d5c13c1	0.053729776
81	0xbcd661df	-0.026169715
82	0x3d2d63ab	0.04233138
83	0x3d29ce48	0.04145649
84	0x3da8fc75	0.08251277
85	0x3cab9448	0.02094473
86	0x3d952f0b	0.07284363
87	0xbd52dfd9	-0.05148301
88	0xbca7824f	-0.020447878
89	0x3d063a6d	0.032770563
90	0xbb35c27e	-0.0027734335
91	0x3c094d7f	0.008380293
92	0x3a42db70	0.00074332114
93	0x3d6aa895	0.05728968
94	0xbd4dc40c	-0.050235793
95	0x3d3e6d9f	0.04649126
96	0xbd99c0b1	-0.07507456
97	0x3d7b242d	0.061313797
98	0xbca7c2a3	-0.020478552
99	0x3c61932a	0.013767997
100	0xbd68da1c	-0.05684863
101	0x3d2cf2d7	0.042223778
102	0xbcc9444f	-0.024568705
103	0x3d27f3d3	0.041004013
104	0x3aaa910a	0.0013013196
105	0x3c5830a9	0.013195195
106	0x3ce1f29d	0.027581507
107	0xbdac416e	-0.08410917
108	0x3dad56e0	0.08463836
109	0xbd962eb4	-0.07333127
110	0xbd7e6b21	-0.062113885
111	0x3bd67f31	0.006545924
112	0x3db060b8	0.08612198
113	0xbd9d6eb3	-0.0768713
114	0xbd52c7d0	-0.051460087
115	0xbd801637	-0.06254237
116	0xbd2a544d	-0.0415843
117	0x3d473976	0.048638783
118	0xbc1ce79c	-0.009576704
119	0x3c31e3bc	0.010857519
120	0xbdb17436	-0.086647436
121	0x3d8afd66	0.06786613
122	0x3da23951	0.079210885
123	0xbd1f0fa8	-0.03883329
124	0x3d8237fc	0.063583344
125	0x3d1fb706	0.038992904
126	0xbda84031	-0.082153685
127	0x3bc72db3	0.006078446
128	0x3c95008f	0.018188743
129	0xbc9e22f5	-0.019303778
130	0x3d9f14d3	0.07767644
131	0xbcff8aa0	-0.031194031
132	0x3c337e48	0.010955401
133	0x3cec6bfc	0.028860085
134	0x3dad8a96	0.08473699
135	0x3c285c81	0.010275961
136	0x3db1b2cb	0.0867668
137	0xbbc19a2d	-0.0059082718
138	0xbc318dde	-0.010837046
139	0x3dac4473	0.08411493
140	0xbdb1f4f0	-0.08689296
141	0x3b8ffcba	0.004394141
142	0x3d78d7b5	0.06075259
143	0xbd25b42e	-0.040455036
144	0x3d82df57	0.06390255
145	0xbd5c6f46	-0.053817056
146	0x3d71e8a2	0.059059747
147	0x3d1316c0	0.035910368
148	0xbcf0acb9	-0.029379236
149	0x3db4355c	0.0879924
150	0x3db00f4d	0.085966684
151	0xbd56426a	-0.05230943
152	0xbc33da40	-0.010977328
153	0xbc50c07b	-0.012741203
154	0xbdc1d673	-0.09464731
155	0xbd827987	-0.06370836
156	0x3d0ef7ff	0.034904476
157	0xbcab53da	-0.020914007
158	0xbbea2e0b	-0.007146602
159	0xbc2a18df	-0.010381906
160	0x3d5ed414	0.054401472
161	0xbd80fe94	-0.06298557
162	0x3da81638	0.08207363
163	0x3d91de15	0.07122437
164	0xbcaa5c0b	-0.020795843
165	0x3d179635	0.037008483
166	0x3d5f3273	0.05449147
167	0xbdb26b95	-0.08711926
168	0xbdafcd0b	-0.08584031
169	0x3d9fe98c	0.078082174
170	0xbd013f3b	-0.031554442
171	0xbbbd3f06	-0.0057753352
172	0xbc934642	-0.017977837
173	0xbd55123f	-0.052019354
174	0x3d18de78	0.037321538
175	0x3d87616c	0.066103786
176	0x3d91beec	0.071164936
177	0xbd34b474	-0.044117406
178	0x3d30a8de	0.043129794
179	0xbd27c403	-0.040958416
180	0xbd07b9d7	-0.033136215
181	0xbd215736	-0.03938981
182	0x3d88fa6f	0.066883914
183	0xbd0c137d	-0.034198273
184	0xbd226194	-0.03964384
185	0xbd53ce65	-0.051710505
186	0xbdae1684	-0.08500388
187	0xbda7a4c3	-0.08185723
188	0x3d85dc65	0.065361775
189	0x3dbc9602	0.09208299
190	0xbd9a7716	-0.07542245
191	0xbd934226	-0.07190351
192	0xbd1c553a	-0.038167216
193	0x392504dd	0.00015737438
194	0x3d693929	0.056939278
195	0x3d870538	0.06592792
196	0xbd17897a	-0.036996342
197	0xbca5abae	-0.020223465
198	0x3d00bfd9	0.03143296
199	0x3d9ed288	0.077549994
200	0x3d2fe3ea	0.042941965
201	0xbdb95d2f	-0.090509765
202	0x3dc86b4e	0.09786092
203	0xbd08a750	-0.033362687
204	0xbd22b071	-0.03971905
205	0x3d980d43	0.074244045
206	0xbd986948	-0.07441956
207	0x3d85363d	0.06504486
208	0xbda83fb3	-0.08215275
209	0xbd30afee	-0.04313653
210	0xbd1cf9cb	-0.03832416
211	0x3d9d58e5	0.07682971
212	0x3d2d5d65	0.042325396
213	0x3d01839d	0.031619657
214	0x3d66fb62	0.05639208
215	0x3d33a37d	0.043857086
216	0x3d112f15	0.03544529
217	0xbb4e8bc1	-0.0031516405
218	0xbd102ea0	-0.035200715
219	0xbd4c7b70	-0.049922407
220	0xbd5acc50	-0.053417504
221	0xbd68e84f	-0.05686217
222	0xbd70cbf0	-0.05878824
223	0x3c0a34b4	0.008435417
224	0x3d3b88f4	0.045784906
225	0x3a7f4901	0.00097383565
226	0xbcff4df9	-0.03116511
227	0x3d82195d	0.06352494
228	0x3dab7217	0.0837137
229	0x3d37bee9	0.0448598
230	0xbd8dabcb	-0.069175325
231	0xbd665926	-0.056237362
232	0xbcde5d51	-0.027144106
233	0x3d9598a5	0.07304505
234	0xbc8d0647	-0.017214907
235	0xbce340c7	-0.02774085
236	0xbc52bbff	-0.012862205
237	0x3dd31310	0.1030637
238	0xbc274296	-0.010208746
239	0x3c926397	0.017869754
240	0x3d522b4a	0.051310815
241	0xbc88a25a	-0.016678978
242	0xbcc8db45	-0.024518618
243	0x3d0100c8	0.031494886
244	0x3dbb4193	0.09143367
245	0x3db191f5	0.08670417
246	0x3d6f0fa8	0.05836454
247	0x3db8d789	0.09025485
248	0xbdaa1c96	-0.083062336
249	0x3d19d963	0.03756083
250	0xbda01c39	-0.07817883
251	0x3c61b362	0.013775678
252	0xbc97a039	-0.018509017
253	0x3d7a6b5b	0.06113754
254	0x39ca6343	0.00038602398
255	0x3d2304ea	0.03979961

bias f4 [64]
0	0xbd4e8b82	-0.050426014
1	0x3d67fd78	0.05663821
2	0xbd63a218	-0.055574507
3	0x3b43a38b	0.0029852118
4	0x3d8204ed	0.06348596
5	0x3d9eb773	0.07749834
6	0x3d95a81a	0.073074535
7	0x3cc1bf37	0.023650749
8	0xbd188a00	-0.037240982
9	0x3da42b05	0.08016018
10	0x3d181b67	0.037135508
11	0x3c860d86	0.01636387
12	0xbd9680bc	-0.07348773
13	0xbd5c98ed	-0.05385678
14	0xbd5708f2	-0.052498765
15	0x3d96fdd6	0.07372634
16	0x3d94388d	0.07237349
17	0x3da4cedf	0.0804727
18	0x3bc33b77	0.0059580165
19	0x3d8e4f20	0.06948686
20	0xbc7f07a8	-0.01556579
21	0xbcc80cb1	-0.024420114
22	0xbd6f0cac	-0.058361694
23	0xbc24d560	-0.010060638
24	0x3d38438e	0.0449863
25	0xbb8f98ed	-0.004382244
26	0xbd053efe	-0.032530777
27	0x3d80e811	0.06294263
28	0xbc815150	-0.015785843
29	0xbc8ecf6f	-0.017432896
30	0x3bd4c371	0.006493025
31	0x3c23a04a	0.009986946
32	0xbd90e0a4	-0.07074097
33	0xbd8a176d	-0.06742749
34	0x3a928e89	0.0011181395
35	0x3d56380b	0.05229954
36	0x3d69245a	0.056919433
37	0x3c97d063	0.018531984
38	0xbd2abbae	-0.04168289
39	0xbd088805	-0.033332843
40	0x3ca4d44c	0.020120762
41	0xbc4123f1	-0.011788354
42	0x3cc80e7f	0.024420975
43	0xbd97b674	-0.07407847
44	0x3cd2d64e	0.025736954
45	0x3d80264d	0.06257305
46	0x3d812133	0.063051604
47	0xbd4d4bee	-0.05012124
48	0xbda6e266	-0.08148651
49	0xbc3cf74c	-0.01153357
50	0xba1f6bfe	-0.0006081461
51	0x3da960c1	0.082704075
52	0x3da8a096	0.08233754
53	0x3be30724	0.0069283415
54	0x3c9d5c6f	0.019209115
55	0x3c311a7a	0.010809535
56	0xbd78fee6	-0.060789965
57	0x3c416264	0.011803243
58	0xbc80362f	-0.015650837
59	0x3d85a4cd	0.06525574
60	0x3d838589	0.06421954
61	0x3c2d3db2	0.010573791
62	0xbd9b9b55	-0.075979866
63	0xbd61e13d	-0.055146445

weight f4 [10, 64]
0	0xbd686750	-0.05673915
1	0x3e0d9ab6	0.13828549
2	0x3cf3e490	0.029772073
3	0xbe02320b	-0.12714402
4	0x3d8e647f	0.06952762
5	0xbd67dd6e	-0.056607656
6	0xbe1c161f	-0.15242814
7	0xbcb48320	-0.022035182
8	0xbdfa7ae0	-0.12230468
9	0x3ca5a797	0.020221515
10	0xbdcf9db1	-0.10137499
11	0x3db404c8	0.087899745
12	0x3df69157	0.1203944
13	0xbdeec45a	-0.11658545
14	0x3dd0f6f5	0.10203353
15	0x3d32e951	0.04367954
16	0x3de1a452	0.1101767
17	0xbd8dc3f9	-0.069221444
18	0x3dd52f3e	0.10409401
19	0x3d0fd0db	0.03511129
20	0x3d86ddcf	0.065852754
21	0xbd1202ec	-0.035647318
22	0xbc873583	-0.016505009
23	0x3e04c15a	0.12964383
24	0xbc860e88	-0.01636435
25	0xbd4e76de	-0.05040633
26	0x3e05b952	0.13058975
27	0x3d36b164	0.044602767
28	0xbd586cc8	-0.052838117
29	0x3d6828ce	0.05667954
30	0x3d833a11	0.0640756
31	0xbd426169	-0.04745618
32	0x3daa2e7c	0.083096474
33	0x3c9d56a9	0.019206362
34	0xbbd8c0d8	-0.0066147856
35	0x3dc43aac	0.09581503
36	0x3d00434f	0.03131419
37	0xbdbb163b	-0.091350995
38	0xbe0bbfb7	-0.13647352
39	0x3c9a74f0	0.018854588
40	0xbd475cbf	-0.048672434
41	0xbd02712b	-0.031846207
42	0xbd890265	-0.0668991
43	0xbdc365fa	-0.09540935
44	0xbdd7f751	-0.10545219
45	0x3dab9f10	0.08379948
46	0x3dd86c77	0.10567563
47	0x3da7a8e5	0.08186511
48	0xbd8a462e	-0.06751667
49	0x3d5cc1fd	0.05389594
50	0xbdbf9fa8	-0.09356624
51	0x3de41c9e	0.11138271
52	0x3badf6d6	0.005308966
53	0xbd33c92c	-0.043893024
54	0xbd315f84	-0.04330398
55	0x3c954d2e	0.018225279
56	0xbc86aae6	-0.016438913
57	0xbdc1c246	-0.09460883
58	0xbde2c9ef	-0.11073672
59	0x3dce2f2b	0.1006759
60	0x3b926766	0.0044678925
61	0x3da1b4e8	0.07895833
62	0x3db9c82e	0.09071384
63	0x3ce9bdad	0.028532827
64	0xbda854d5	-0.082193054
65	0x3e36c4fb	0.1784858
66	0xbd46ea66	-0.048563384
67	0xbe02093a	-0.12698832
68	0x3d557492	0.052113123
69	0xbcb40473	-0.021974778
70	0xbe20b5f9	-0.15694417
71	0xbdd32b38	-0.10310978
72	0x3d6f7f13	0.058470797
73	0xbd10fc4e	-0.035396867
74	0xbd8cf371	-0.0688237
75	0xbdad025f	-0.08447718
76	0xbdd66550	-0.104685426
77	0x3c8c9f2b	0.017165741
78	0x3d8630c1	0.06552268
79	0x3dd69ed5	0.104795136
80	0x3dffada4	0.12484291
81	0x3d62392d	0.05523031
82	0xbd63889e	-0.05555021
83	0x3c5110e1	0.012760372
84	0x3aed2029	0.001809125
85	0x3c95e7de	0.01829904
86	0x3d600a15	0.054697115
87	0x3ca3c896	0.019993108
88	0xbd960605	-0.07325367
89	0xbd947a86	-0.07249932
90	0x3dc2291a	0.09480496
91	0x3ca48692	0.0200837
92	0xbe058ba1	-0.13041545
93	0x3c06f3ab	0.008236806
94	0x3dfa326b	0.12216648
95	0xbe202d44	-0.15642267
96	0x3d9986a8	0.07496387
97	0x3dadc554	0.08484903
98	0x3aa62557	0.0012675923
99	0x3d2d4e8e	0.042311244
100	0x3da454bc	0.08023974
101	0xbde4ec5c	-0.111778945
102	0x3ce26cf2	0.02763984
103	0x3df03a49	0.11729867
104	0xbcc4f67c	-0.024043314
105	0x3c4856ed	0.012227756
106	0x3d554f32	0.05207748
107	0xbdbb5a76	-0.091481134
108	0xbe01a44c	-0.1266033
109	0xbcde5a71	-0.027142735
110	0x3c958e5c	0.018256359
111	0xbde3451a	-0.110971645
112	0xbe212206	-0.15735635
113	0xbdc57ea3	-0.09643295
114	0x3d0c40ab	0.03424136
115	0x3deefe94	0.11669651
116	0x3d9f30ce	0.07772981
117	0xbda011e0	-0.078159094
118	0xbe086b34	-0.13322145
119	0xbcdb51e4	-0.026772447
120	0x3d11d381	0.035602096
121	0xbda61ca4	-0.081109315
122	0xbb721082	-0.003693611
123	0xbd9fbb97	-0.07799452
124	0xbd4ed136	-0.050492488
125	0x3db729f3	0.08943548
126	0xbd2c8bdd	-0.04212557
127	0xbdc22702	-0.094800964
128	0xbba74b1d	-0.0051053897
129	0xbde5180b	-0.111862265
130	0xbcbabc52	-0.022794876
131	0xbd20145a	-0.03908191
132	0x3d98a37f	0.074530594
133	0xbddb1144	-0.106966525
134	0x3d3c3e06	0.045957588
135	0xbd634671	-0.0554871
136	0x3dc33291	0.09531129
137	0xbc2caf62	-0.010539861
138	0xbe16e4d4	-0.14735729
139	0xbd5fa978	-0.054604977
140	0x3da51389	0.08060367
141	0x3cebdac7	0.028790845
142	0xbd5a0c78	-0.053234547
143	0xbc5060e1	-0.01271841
144	0xbe0de7b4	-0.13857919
145	0xbcb37ea9	-0.021910982
146	0x3e028b6e	0.127485
147	0x3c975471	0.018472882
148	0xbd3279b4	-0.043573096
149	0x3c93f7e8	0.018062547
150	0x3d93d2a6	0.072179124
151	0x3d9d2d03	0.07674601
152	0xbd2cc0f0	-0.042176187
153	0x3e0c1abe	0.13682076
154	0x3dd74849	0.10511834
155	0x3c039549	0.008031198
156	0xbddd1dc0	-0.1079669
157	0x3dcffa41	0.10155154
158	0xbdf7dc6c	-0.12102589
159	0xbd90409c	-0.07043573
160	0x3dbfe80a	0.0937043
161	0xbdf44f71	-0.11929215
162	0xbdd028bd	-0.1016402
163	0x3d9b5b69	0.075857945
164	0x3bb4d0bd	0.0055180476
165	0x3dfba70b	0.1228772
166	0x3e0b0679	0.13576688
167	0x3db88538	0.090097845
168	0xbdae783b	-0.08519026
169	0x3de8f1f9	0.113742776
170	0x3d0a6b5c	0.033793792
171	0x3df47104	0.119356185
172	0x3cc07ade	0.023496088
173	0xbddac33c	-0.10681769
174	0xbd8109bb	-0.06300684
175	0x3c9d6eb6	0.01921783
176	0x3e21536a	0.15754476
177	0xbd09457a	-0.033513524
178	0x3c6661c9	0.0140614
179	0x3dce1fe4	0.100646764
180	0xbdb0a310	-0.08624852
181	0xbd1a3812	-0.03765113
182	0x3d69b0bc	0.057053313
183	0x3cd94630	0.026522726
184	0xbd820cfc	-0.06350133
185	0xbdeb2b48	-0.114828646
186	0xbcca3b34	-0.024686433
187	0x3d585ef4	0.05282493
188	0x3dc23dfc	0.09484479
189	0xbda77f95	-0.08178631
190	0xbdcf00be	-0.101075634
191	0x3baa08cc	0.005189037
192	0x3e18d04c	0.14923209
193	0x3e222ee9	0.15838207
194	0xba1f8714	-0.0006085497
195	0x3ce3b886	0.027797949
196	0x3d936c54	0.07198396
197	0xbd837944	-0.06419614
198	0xbe284eb7	-0.16436277
199	0x3d20f989	0.039300475
200	0xbc1c87ab	-0.00955383
201	0x3db0ecca	0.08638914
202	0xbd424dcf	-0.047437485
203	0x3dd6320a	0.10458763
204	0xbd29f231	-0.041490737
205	0x3df4501e	0.11929344
206	0xbc904074	-0.017608859
207	0xbd30698c	-0.043069407
208	0xbd19661b	-0.03745089
209	0x3ca67e01	0.020323755
210	0x3d171d90	0.036893427
211	0xbdb294bb	-0.08719774
212	0xbdef573e	-0.11686562
213	0xbdd64eab	-0.104642235
214	0x3dad1b82	0.08452512
215	0xbd750890	-0.05982262
216	0xbd522188	-0.05130151
217	0xbdf0812c	-0.117433876
218	0xbc8c7b2c	-0.017148577
219	0xbd5fb3e4	-0.054614916
220	0xbd880755	-0.066420235
221	0x3d1d9d43	0.038480055
222	0xbcb61ebb	-0.02223145
223	0xbd909c2d	-0.07061038
224	0x3d89716b	0.06711086
225	0x3e065e87	0.13121997
226	0x3dddaf39	0.10824437
227	0xbd894ac6	-0.06703715
228	0x3d3cc91e	0.046090238
229	0x3d8f7cce	0.070062265
230	0xbd441dae	-0.047879867
231	0xbdb8f4f6	-0.090310976
232	0x3dbd3f81	0.09240628
233	0xbc0eff0c	-0.0087278
234	0xbdf95abf	-0.121755116
235	0x3d75e66d	0.060034204
236	0xbdb932d2	-0.09042896
237	0x3ba0ab64	0.004903244
238	0xbdf379d2	-0.1188847
239	0x3e00e28d	0.12586422
240	0xbdcc219c	-0.09967348
241	0xbc8bdfd9	-0.017074512
242	0xbc34bfa8	-0.011032023
243	0x3e21e605	0.15810402
244	0x3e0f97bc	0.14022726
245	0xbdc0214c	-0.09381351
246	0xbd02c515	-0.031926233
247	0x3bcc8514	0.00624145
248	0xbdb9c334	-0.09070435
249	0xbdd91b46	-0.10600905
250	0x3d0da5ef	0.034582075
251	0x3e00f02e	0.12591621
252	0xbe083605	-0.13301857
253	0x3dff94d5	0.12479559
254	0x3d560f0e	0.05226045
255	0xbb31c856	-0.0027127466

bias f4 [10]
0	0xbccdbe94	-0.025115289
1	0x3dd78140	0.10522699
2	0x3d07a287	0.033113983
3	0x3d82db46	0.06389479
4	0xbd80c5d9	-0.062877364
5	0x3e12bcc3	0.1432982
6	0xbd392375	-0.04519983
7	0x3e210498	0.15724409
8	0xbcc8ab2b	-0.024495682
9	0x3cf9f940	0.03051436
