Trabajo Practico 2/models/conf_3_model.pth (torch, 214586 bytes, 6 tensors)

weight f4 [64, 784]
-0.01752685 0.020005036 -0.035114408 -0.03481023 0.016701544 -0.026395833 -0.018408539 0.02779823
0.013818717 0.030249164 -0.008616427 -0.0213225 -0.00870383 0.0041177757 0.0053599547 0.0044499757
-0.01994229 0.016626162 0.021764705 0.030247217 0.015500507 -0.010861005 -0.014441505 -0.023235705
-0.019851899 -0.029334774 0.0026541997 -0.007879864 0.02523235 -0.0339397 0.02977793 0.004294198
-0.0016928352 0.008949796 -0.0029963169 -0.023591032 -0.012360094 0.011664419 0.038418733 0.019993842
0.002792348 0.011966416 -0.008915985 0.040589947 0.03302504 -0.016020993 -0.0005857583 0.027435364
-0.008565728 -0.03340399 -0.032944232 0.015768722 0.026289782 -0.02388667 -0.021798832 0.024314294
0.026952684 0.008651617 -0.009879196 -0.0060352464 0.01869851 0.022782935 -0.009327212 -0.028874556
0.010302347 -0.0063273637 -0.010435046 0.01096622 0.038605414 -0.0010527567 0.00199975 -0.009474123
-0.026894946 0.033080295 -0.012242467 -0.0148296105 0.028069224 -0.0032011063 -0.030746624 -0.01442462
-0.034035213 0.03272966 0.02183862 -0.012107368 -0.027166042 -0.024665358 0.0021736647 -0.005066102
-0.012231679 -0.005542309 0.028061906 0.026168708 0.020724088 0.029870646 -0.0074774507 0.046217453
-0.020852545 -0.0225402 0.042047743 -0.027332177 0.01994158 0.0368316 -0.032951966 0.017274076
-0.012648455 0.014986796 -0.033356026 -0.016398521 -0.035072315 -0.027023675 -0.00046696502 0.014299075
-0.028531864 -0.022275042 -0.03430421 -0.028787736 0.02754696 0.02854121 -0.025688246 0.02526201
0.025484236 0.033118486 0.035146877 0.014949488 -0.008252398 0.014881838 0.021520954 0.030227575
0.027669039 -0.0015257505 0.026937542 -0.019346435 -0.019854648 0.0090257125 0.013049698 0.01787257
0.025661727 -0.013264409 -0.0086743655 -0.017687425 -0.018724926 -0.016005825 -0.025007127 -0.028280828
0.033152632 -0.0009376723 0.04532747 -0.0050985184 0.0033281841 0.04763439 -0.0034967496 0.01979911
0.025197327 0.016357446 0.029924702 -0.027615987 0.031477116 -0.0122403735 0.02899124 0.014234815
0.033929795 -0.031247377 0.022378659 -0.027125394 0.018366052 0.024522912 -0.002023727 0.007445533
0.0039811046 0.01960237 0.013844076 0.013143973 0.018947171 0.012862097 0.009253578 0.035298128
0.05156782 -0.007980924 0.04210987 0.021137357 0.0018273805 0.027111614 0.024428789 0.008012378
-0.013527425 0.0021365995 -0.011397093 -0.026693335 0.022008806 0.033740737 -0.02581675 -0.0018315471
-0.042249996 -0.037508324 -0.021884318 0.0063977293 -0.023598287 0.026959412 0.020809682 -0.03400818
0.005332123 0.026569888 0.017234046 0.021261923 -0.00017077607 0.042904202 -0.014496297 0.019357188
-0.007929925 0.0140585555 0.018673906 0.0010720433 -0.03500246 0.030295394 0.008431899 0.0011996487
-0.013461035 0.025660155 -0.03420566 -0.038380243 -0.0039442307 0.02643414 0.02791613 0.0019396853
0.024529135 0.01838002 -0.030486804 0.033111505 0.011347922 0.007361063 -0.014992763 0.03653323
0.00049817795 0.040848296 0.045107637 0.023164902 0.01749907 0.0055572353 0.027181849 -0.011374225
0.031329762 -0.016509628 -0.012553027 0.03221521 -0.010301638 0.00061622704 0.02317525 -0.018599043
0.016541425 -0.0018582408 0.031234413 -0.023720432 0.014687646 0.0337441 -0.022864483 -0.024511915
00000000: 7894 8fbc 9ae1 a33c 20d4 0fbd 2c95 0ebd
00000010: add1 883c 133c d8bc 81cd 96bc 1db9 e33c
00000020: e667 623c 18cd f73c ea2b 0dbc 86ac aebc
00000030: 829a 0ebc 68ee 863b 8fa2 af3b 1ad1 913b
00000040: 035e a3bc 9733 883c e54b b23c 03c9 f73c
00000050: d7f5 7d3c 5bf2 31bc 109c 6cbc ce58 bebc
00000060: 73a0 a2bc 7b4f f0bc 15f2 2d3b 8c1a 01bc
00000070: 13b4 ce3c 5b04 0bbd d8f0 f33c 58b6 8c3b
00000080: 20e2 ddba 2aa2 123c db5d 44bb fb41 c1bc
00000090: fe81 4abc 1f1c 3f3c f65c 1d3d 20ca a33c
000000a0: d3ff 363b c90e 443c 5a14 12bc a541 263d
000000b0: 4445 073d 753e 83bc 938d 19ba 21c0 e03c
000000c0: 4457 0cbc 9fd2 08bd 88f0 06bd 682d 813c
000000d0: ab5d d73c faad c3bc 7793 b2bc c52e c73c
000000e0: e0cb dc3c 83bf 0d3c 5adc 21bc 51c3 c5bb
000000f0: 9e2d 993c 47a3 ba3c 2ad1 18bc 558a ecbc
00000100: 2dcb 283c c655 cfbb c1f7 2abc a9ab 333c
00000110: b620 1e3d a7fc 89ba 3d0e 033b 5a39 1bbc
00000120: ca52 dcbc 347f 073d a194 48bc e5f7 72bc
00000130: 6ef1 e53c a7c9 51bb 58e0 fbbc 3e55 6cbc
00000140: 8268 0bbd 890f 063d e8e6 b23c fb5d 46bc
00000150: 528b debc 010f cabc 0b74 0e3b 8b01 a6bb
00000160: 6167 48bc 429c b5bb 15e2 e53c c25f d63c
00000170: 90c5 a93c 49b3 f43c 6705 f5bb 834e 3d3d
00000180: f5d2 aabc 3aa6 b8bc 413a 2c3d bbe7 dfbc
00000190: 865c a33c bbdc 163d a4f8 06bd 5d82 8d3c
000001a0: 773b 4fbc 2e8b 753c 54a0 08bd 3156 86bc
000001b0: fda7 0fbd c160 ddbc fcd2 f4b9 ab46 6a3c
000001c0: a8bb e9bc 267a b6bc 9282 0cbd 42d4 ebbc
000001d0: 2aaa e13c 41cf e93c 2870 d2bc 46f2 ce3c
000001e0: 51c4 d03c 40a7 073d 2cf6 0f3d b3ee 743c
000001f0: 1135 07bc f4d2 733c b64c b03c d29f f73c
00000200: 2eaa e23c b1fb c7ba 1fac dc3c 6a7c 9ebc
00000210: 37a6 a2bc 95e0 133c 67ce 553c 7f69 923c
00000220: 8b38 d23c f752 59bc ed1e 0ebc 38e5 90bc
00000230: 0465 99bc a61e 83bc bfdb ccbc 32ad e7bc
00000240: 0ecb 073d 1fce 75ba 4ca9 393d 7911 a7bb
00000250: aa1d 5a3b 471c 433d b929 65bb be31 a23c
00000260: a06a ce3c 0d00 863c a624 f53c ec3a e2bc
00000270: 26ee 003d d98b 48bc 097f ed3c 2439 693c
00000280: f8f9 0a3d 80fa ffbc 7353 b73c 1336 debc
00000290: 6774 963c 46e4 c83c 81a0 04bb a8f9 f33b
000002a0: ed73 823b 2695 a03c 43d2 623c d259 573c
000002b0: 1937 9b3c 8bbb 523c 529c 173c c594 103d
000002c0: c738 533d 6cc2 02bc 667b 2c3d 4028 ad3c
000002d0: b784 ef3a 2d19 de3c e21e c83c 5946 033c
000002e0: 22a2 5dbc 3106 0c3b dfba 3abc fbab dabc
000002f0: d04b b43c ba33 0a3d a67d d3bc 8610 f0ba
00000300: 550e 2dbd 54a2 19bd be46 b3bc 0ba4 d13b
00000310: 3251 c1bc fcd9 dc3c 1179 aa3c 294c 0bbd
00000320: 17b9 ae3b 18a9 d93c 6a2e 8d3c 7c2d ae3c
00000330: 5a12 33b9 51bc 2f3d e081 6dbc f792 9e3c
00000340: 84ec 01bc db55 663c 05fa 983c ce83 8c3a
00000350: bd5e 0fbd 0c2e f83c f325 0a3c 883d 9d3a
00000360: ac8b 5cbc 3f35 d23c 3c1b 0cbd 9a34 1dbd
00000370: 9b3e 81bb 698c d83c 5eb0 e43c 0a3d fe3a
00000380: 53f1 c83c b291 963c 76bf f9bc ee9f 073d
00000390: a2ec 393c 1235 f13b 35a4 75bc dea3 153d
000003a0: 2898 023a 8b50 273d c9c2 383d 52c4 bd3c
000003b0: 365a 8f3c 7819 b63b 78ac de3c f55a 3abc
000003c0: a353 003d 333f 87bc 36ab 4dbc 19f4 033d
000003d0: 34c8 28bc 4c8a 213a 06da bd3c 055d 98bc
000003e0: e281 873c 3790 f3ba 50df ff3c 5a51 c2bc
000003f0: 74a4 703c 4137 0a3d 4c4e bbbc 36cd c8bc

bias f4 [64]
-0.0009119038 0.014912923 0.024061987 0.028876774 0.01440531 0.0019307564 -0.008381097 -0.031569626
0.012330296 -0.02842666 0.0047940924 0.022482868 -0.006916834 0.0285112 0.026297022 -0.022770174
-0.0014612852 -0.005030129 0.011436705 -0.01314333 0.015367902 0.01299774 -0.031382706 0.026317228
-0.028629681 0.007623374 -0.03544199 0.04257736 0.030948114 0.0109238345 0.007941027 0.035976157
-0.0038336802 -0.015094476 0.026110148 0.01629987 -0.023886032 0.026393566 -0.012009075 -0.0013190449
0.004220963 0.03090366 0.0010487342 -0.0063713663 0.013573292 0.014121604 0.022719631 0.017905178
-0.012973792 0.029791778 0.00982773 -0.0143308425 0.010587013 -0.030531207 0.005945946 -0.013896913
0.015489491 -0.006832378 -0.034631047 -0.02002555 0.038018826 0.03202483 0.0010523497 -0.033742186
00000000: d40c 6fba 5555 743c a51d c53c fc8e ec3c
00000010: 4004 6c3c 6f11 fd3a de50 09bc 274f 01bd
00000020: 0305 4a3c 07df e8bc c317 9d3b fe2d b83c
00000030: 9ca6 e2bb 5290 e93c da6c d73c 8488 babc
00000040: 9888 bfba c8d3 a4bb 0461 3b3c 1f57 57bc
00000050: a7c9 7b3c 79f4 543c 278b 00bd 3a97 d73c
00000060: cb88 eabc 7fcd f93b 9f2b 11bd 9965 2e3d
00000070: e686 fd3c e2f9 323c 151b 023c bc5b 133d
00000080: 7b3e 7bbb d24e 77bc f3e4 d53c 4e87 853c
00000090: a4ac c3bc 5237 d83c b6c1 44bc cde3 acba
000000a0: 0150 8a3b ac29 fd3c ae75 893a e5c6 d0bb
000000b0: 8362 5e3c 4d5e 673c 851e ba3c e1ad 923c
000000c0: 0790 54bc e30d f43c 7d04 213c e9cb 6abc
000000d0: 2775 2d3c 951c fabc 36d6 c23b e1af 63bc
000000e0: a2c7 7d3c 24e2 dfbb 49d9 0dbd 9f0c a4bc
000000f0: a1b9 1b3d 782c 033d ffee 893a 3f35 0abd

weight f4 [31, 64]
-0.08799218 -0.03658911 0.059642535 0.010316695 0.034651842 -0.05812258 -0.099300176 0.0074000573
-0.015421349 0.10558707 0.08591898 -0.005367335 0.058000084 -0.07206385 -0.046058696 -0.08799895
-0.051296677 -0.080916606 -0.05428993 0.072977565 -0.010489585 0.10432961 0.03244978 -0.049390133
-0.07037352 -0.04819882 0.07210391 -0.08659055 -0.07490555 -0.0813667 -0.058359876 -0.1019759
-0.116496325 0.12757178 0.08433465 -0.061208855 -0.008867745 -0.060642563 -0.063333 -0.09354836
0.024166688 -0.088507846 0.032995258 0.03194229 0.012160853 0.05410387 0.08939908 0.10377967
0.10682122 -0.075779565 -0.06046647 -0.046746872 -0.072308354 0.00617788 0.023361556 0.10746356
-0.005450546 0.014602254 0.06854194 -0.087242335 -0.03233884 -0.035788093 0.061991107 -0.049787853
-0.05126001 0.1668638 -0.120558776 -0.06716092 0.07283362 0.034478668 -0.108816005 -0.10215445
0.045909353 0.12451463 0.03058048 -0.12201104 0.12727347 -0.039377347 0.0070079993 -0.0018508158
0.03511646 -0.014499522 0.0063456143 0.0056744283 0.11273163 0.05916677 -0.11706159 -0.10405378
0.12177236 -0.059715126 -0.049775746 0.08257123 0.061247706 0.07325003 0.07412541 0.113998
-0.10835505 -0.028519575 -0.08739869 -0.092297845 0.08355893 -0.059808105 -0.052711528 -0.10418675
0.08060823 0.067765124 -0.10045789 0.1587488 0.009449939 -0.10723929 -0.107624106 -0.030094575
0.07036028 0.12354013 0.059436567 0.06329292 -0.1058337 0.08144833 0.028358465 0.012060849
0.09252053 0.036471073 0.084547564 0.017668376 0.11347886 0.19399196 0.008945111 0.023098955
0.1052963 -0.08701757 -0.09798048 0.044530146 0.0042239637 -0.08353529 -0.07395032 -0.0648821
-0.060831647 -0.056036994 -0.0027319281 -0.031666055 0.015634196 -0.027789677 -0.111190565 0.033691175
0.04344081 0.077679455 0.10155138 0.07481332 -0.029245898 -0.086436555 -0.07489344 -0.07941225
0.1096552 0.06831731 -0.087990925 -0.014521793 0.013528805 0.061503287 -0.050413035 -0.060538873
0.01542918 0.017224636 0.06124497 0.03486267 -0.008619666 0.029332606 -0.027311152 0.008000828
-0.005158934 0.06767805 -0.013006416 -0.048197854 -0.08695685 0.05309114 -0.071950555 -0.12417765
-0.11155767 -0.114291765 -0.035508092 -0.028473316 -0.017563399 0.042518426 0.049266044 -0.019449351
0.010866875 -0.025046507 0.032198276 0.10370271 0.0395494 0.08364297 0.03308736 0.057966575
-0.13031286 -0.0011740711 0.094951995 -0.10021197 0.015429444 0.15042952 -0.029574076 0.005210689
0.031324904 0.10518993 0.08771882 -0.055330403 0.08435016 0.04135501 0.13492317 0.048776455
0.1413279 0.13178985 -0.059956774 -0.12107615 -0.030211994 -0.10310172 -0.037926815 0.006508136
-0.12465437 0.009497982 0.10226325 0.069811836 0.088143006 -0.064306125 0.078968875 -0.054400053
0.056291003 -0.11566128 0.1602012 -0.12051795 -0.027230445 0.046755653 -0.07091925 -0.024688302
-0.10083287 0.1411228 0.122734606 -0.05348038 -0.11570352 -0.023217084 -0.005153387 0.055752404
0.11096736 0.00033775228 0.013056309 -0.008095226 -0.031081853 0.118190646 0.11729203 -0.03692999
-0.11093055 -0.14196347 0.059162322 -0.054993745 0.05824609 0.17083614 -0.053791363 0.10596905
00000000: 3e35 b4bd 76de 15bd bb4b 743d 5b07 293c
00000010: 17ef 0d3d f111 6ebd e45d cbbd 2e7c f23b
00000020: d3a9 7cbc 093e d83d 4af6 af3d 78e0 afbb
00000030: 7f91 6d3d 3696 93bd 0ba8 3cbd cb38 b4bd
00000040: 771c 52bd 9bb7 a5bd 1e5f 5ebd 4375 953d
00000050: 82dc 2bbc c3aa d53d 0fea 043d 4f4d 4abd
00000060: fe1f 90bd 206c 45bd 37ab 933d 6356 b1bd
00000070: 1568 99bd 96a3 a6bd c40a 6fbd bed8 d0bd
00000080: a095 eebd 2da2 023e a5b7 ac3d 23b6 7abd
00000090: 054a 11bc 5664 78bd bbb4 81bd 4896 bfbd
000000a0: 38f9 c53c 9a43 b5bd 0926 073d ebd5 023d
000000b0: 503e 473c 059c 5d3d dd16 b73d 708a d43d
000000c0: 15c5 da3d 5132 9bbd b0ab 77bd a679 3fbd
000000d0: 6716 94bd d06f ca3b bc60 bf3c db15 dc3d
000000e0: 7e9a b2bb 4b3e 6f3c b75f 8c3d 1cac b2bd
000000f0: bb75 04bd 8996 12bd 63ea 7d3d 59ee 4bbd
00000100: 04f6 51bd 58de 2a3e 85e7 f6bd aa8b 89bd
00000110: cb29 953d 8139 0d3d edda debd 5a36 d1bd
00000120: 720b 3c3d 8701 ff3d ea83 fa3c ede0 f9bd
00000130: fa53 023e 244a 21bd 5ca3 e53b 1397 f2ba
00000140: 47d6 0f3d 678f 6dbc dfee cf3b 8ef0 b93b
00000150: d7df e63d db58 723d fdbd efbd 261a d5bd
00000160: c963 f93d d997 74bd a7e1 4bbd 1b1b a93d
00000170: e0de 7a3d 1d04 963d 10cf 973d c977 e93d
00000180: 41e9 ddbd e2a1 e9bc 16fe b2bd a706 bdbd
00000190: f220 ab3d 58f9 74bd 0be8 57bd dd5f d5bd
000001a0: ed15 a53d 71c8 8a3d debc cdbd 0c8f 223e
000001b0: ebd3 1a3c 46a0 dbbd 076a dcbd e688 f6bc
000001c0: 0d19 903d 9c02 fd3d c273 733d b89f 813d
000001d0: 57bf d8bd 62ce a63d 0350 e83c de9a 453c
000001e0: 677b bd3d b162 153d 4627 ad3d 45bd 903c
000001f0: 9b67 e83d d4a5 463e 848e 123c 053a bd3c
00000200: 96a5 d73d 4536 b2bd fda9 c8bd 3e65 363d
00000210: 2d69 8a3b 8d14 abbd 4473 97bd e8e0 84bd
00000220: 9b2a 79bd 0c87 65bd 260a 33bb 44b4 01bd
00000230: 4913 803c 2da7 e3bc e1b7 e3bd c2ff 093d
00000240: feee 313d 6816 9f3d 2bfa cf3d ba37 993d
00000250: 1895 efbc a605 b1bd bb61 99bd e4a2 a2bd
00000260: e892 e03d f2e9 8b3d 9634 b4bd d1ec 6dbc
00000270: eca7 5d3c dfea 7b3d e67d 4ebd 9cf7 77bd
00000280: acca 7c3c ae1a 8d3c 01dc 7a3d 29cc 0e3d
00000290: 8039 0dbc ef4a f03c a3bb dfbc e815 033c
000002a0: 460c a9bb ca9a 8a3d dd18 55bc 1d6b 45bd
000002b0: 6f16 b2bd 1876 593d d05a 93bd da50 febd
000002c0: 5978 e4bd cd11 eabd ef70 11bd df40 e9bc
000002d0: 1ee1 8fbc cd27 2e3d 31cb 493d 3f54 9fbc
000002e0: fa0a 323c 552e cdbc 57e2 033d 1662 d43d
000002f0: 8dfe 213d 014d ab3d 9d86 073d 5c6e 6d3d
00000300: bc70 05be 4ae3 99ba 3176 c23d ef3b cdbd
00000310: c7cb 7c3c 320a 1a3e 5545 f2bc 6dbe aa3b
00000320: 8b4e 003d d16d d73d eda5 b33d 22a2 62bd
00000330: c7bf ac3d df63 293d 4d29 0a3e d2c9 473d
00000340: 43b8 103e ebf3 063e 3c95 75bd c6f6 f7bd
00000350: 257f f7bc ff26 d3bd 2659 1bbd 3442 d53b
00000360: ca4a ffbd 6d9d 1b3c 656f d13d 82f9 8e3d
00000370: 5284 b43d eeb2 83bd 6fba a13d 97d2 5ebd
00000380: 6591 663d d2df ecbd c90b 243e 1dd2 f6bd
00000390: 6212 dfbc db82 3f3d 1d3e 91bd 1f3f cabc
000003a0: 7781 cebd 7f82 103e 485c fb3d 3e0e 5bbd
000003b0: f8f5 ecbd c131 bebc bedd a8bb a25c 643d
000003c0: db42 e33d 5814 b139 21ea 553c d7a1 04bc
000003d0: 5f9f febc f00d f23d ce36 f03d e743 17bd
000003e0: 8e2f e3bd df5e 11be 3154 723d 1f41 61bd
000003f0: 7493 6e3d abef 2e3e 5554 5cbd 4d06 d93d

bias f4 [31]
0.14385766 0.071028985 -0.07397359 0.056950893 -0.10068889 0.13605364 -0.07818346 0.13484703
0.05556675 -0.0292725 -0.07392508 -0.024762021 0.0210181 0.071405284 -0.06054227 0.0161207
0.0035473076 0.12481919 0.09837284 0.090678744 0.035461098 -0.04566664 -0.115197375 -0.004510905
0.04479855 -0.12925528 -0.08319536 0.014301998 0.12701535 0.11563741 0.103446215
00000000: 6c4f 133e a577 913d 777f 97bd 5745 693d
00000010: fa35 cebd a551 0b3e a61e a0bd 5715 0a3e
00000020: f699 633d e2cc efbc 0866 97bd b9d9 cabc
00000030: 272e ac3c ef3c 923d 2cfb 77bd 8f0f 843c
00000040: f279 683b 34a1 ff3d b377 c93d c7b5 b93d
00000050: a83f 113d f10c 3bbd 9aec ebbd 37d0 93bb
00000060: af7e 373d 7f5b 04be 5462 aabd ed52 6a3c
00000070: 5010 023e 4ed3 ec3d 9cdb d33d

weight f4 [10, 31]
0.060380816 0.09918215 0.12701024 0.11020483 -0.10285759 0.12067973 0.059064142 0.049938224
-0.058421217 -0.12064242 -0.09560792 0.10113808 0.13844591 0.18869616 0.050263654 0.08055736
-0.036311843 -0.1832221 -0.011366948 0.0723856 -0.04639235 0.11583163 0.105959706 -0.21615341
0.06640968 -0.016893424 0.12370535 -0.2350258 -0.17771155 0.07997245 0.19473806 0.12176699
0.28992411 0.013111053 0.28336623 0.102051824 0.1849342 0.02173574 0.15317786 -0.013807398
-0.040969796 -0.33167163 -0.0328579 -0.03912029 -0.12267451 -0.012825873 0.011571082 0.19331785
-0.17010543 -0.16200182 0.09158208 0.07382616 0.01493558 -0.015295349 -0.06453982 0.11979494
-0.13578509 -0.17936046 0.047965575 -0.16027911 -0.17650038 -0.07173828 0.011603826 -0.055501904
-0.11244656 -0.025824618 0.06076735 -0.0778916 0.14329953 0.08646128 -0.17479567 0.15065625
0.11262538 0.10830091 0.02182488 0.12805514 -0.0685383 0.01839476 -0.07257456 -0.13325596
0.14635548 0.04929217 0.19096437 -0.0924141 0.12528032 0.1585566 -0.10633338 -0.06911606
0.12775983 -0.23151287 -0.21606836 0.028408766 0.03491743 -0.12448538 0.23420642 0.13653518
-0.10314936 0.07980497 0.2436032 -0.16452092 -0.10091786 -0.1719909 -0.12103778 -0.27351117
0.011575076 0.18780914 0.16387023 0.079318084 -0.07698647 -0.15162905 0.10855595 -0.0005086368
0.015776442 0.10400604 -0.103960276 0.050608847 -0.1439181 -0.054491818 0.062610395 0.05057542
-0.15740417 0.116434135 0.13970368 0.14836758 -0.072169915 0.10220528 -0.049466014 -0.06736488
0.1120695 -0.020085674 0.14716838 0.17737646 0.062204015 0.019877328 0.06372537 -0.13446319
0.06748048 0.061349954 0.11644194 0.059327744 -0.01413102 0.09625389 -0.15406914 0.14340681
0.12528263 0.14061752 -0.06562009 0.109372824 0.0062926053 -0.15944654 -0.14535615 -0.17767857
-0.15058193 0.16819052 0.012464496 0.17146647 0.06307047 -0.16886592 -0.12282264 0.11531983
-0.14538963 -0.06809823 -0.09244699 0.16519566 -0.13377085 -0.059090197 -0.11157588 0.08473002
-0.086897746 0.00053838786 0.025788832 -0.12947793 0.16516186 0.09155915 0.13486838 -0.119378455
-0.13240787 -0.09285316 0.12448926 -0.047392424 0.16284625 0.10007442 0.08885968 -0.07899644
-0.04513991 -0.21790402 0.17767 -0.014439188 -0.045652542 -0.1289452 -0.15928125 -0.009849858
0.18123373 0.18522641 -0.10633772 0.17268191 0.058489338 0.059858 -0.024611868 -0.02054848
-0.079200044 -0.06886995 0.031988546 -0.029289516 -0.06972504 -0.07847037 9.564827e-06 0.01807934
-0.050075993 0.13784143 -0.022992354 0.17295362 -0.069328435 -0.13381258 -0.14235984 -0.121666014
-0.065750524 -0.09558251 -0.0013059402 -0.116314374 -0.09802239 -0.13108203 -0.17698823 -0.21644397
0.03901567 -0.1276504 -0.23307088 0.13012311 -0.037088532 -0.13000704 -0.19226806 -0.16867146
0.116895005 -0.15795356 -0.043761026 -0.07654568 0.18604136 -0.15545379 -0.08494439 0.1035218
-0.08965945 -0.03777783 0.011194194 0.0004611367 0.1356139 0.2141478 -0.117001615 -0.20652002
0.0730739 -0.2286455 -0.1628104 -0.15594721 -0.13621736 -0.007837474 -0.007867547 -0.097850576
00000000: e051 773d 0320 cb3d f90e 023e 12b3 e13d
00000010: 00a7 d2bd ef26 f73d 3eed 713d 068c 4c3d
00000020: 164b 6fbd 6013 f7bd 16ce c3bd 7b21 cf3d
00000030: c4c4 0d3e 9139 413e 43e1 4d3d 42fb a43d
00000040: babb 14bd 939e 3bbe 6f3c 3abc e73e 943d
00000050: e805 3ebd 2239 ed3d 6701 d93d 5257 5dbe
00000060: cc01 883d 1464 8abc 3b59 fd3d 9aaa 70be
00000070: 04fa 35be 99c8 a33d 6a69 473e f960 f93d
00000080: ef70 943e becf 563c 6115 913e 8c00 d13d
00000090: 645f 3d3e 270f b23c a8da 1c3e 6d38 62bc
000000a0: f2cf 27bd ddd0 a9be 0196 06bd 993c 20bd
000000b0: c63c fbbd 9c23 52bc a394 3d3c 1df5 453e
000000c0: 1e30 2ebe cee3 25be 638f bb3d 2b32 973d
000000d0: 5db4 743c 5899 7abc 742d 84bd 0d57 f53d
000000e0: 3f0b 0bbe 45aa 37be 8d77 443d 3520 24be
000000f0: 84bc 34be 85eb 92bd f91d 3e3c f755 63bd
00000100: 624a e6bd 268e d3bc 2fe7 783d a285 9fbd
00000110: 1dbd 123e 9d12 b13d a3fd 32be a245 1a3e
00000120: 23a8 e63d decc dd3d 17ca b23c e320 033e
00000130: cf5d 8cbd 9cb0 963c f9a1 94bd 4074 08be
00000140: 36de 153e 96e6 493d 2a8c 433e 9b43 bdbd
00000150: 7c49 003e a95c 223e 51c5 d9bd b98c 8dbd
00000160: 79d3 023e b611 6dbe 0641 5dbe 80b9 e83c
00000170: 9405 0f3d 31f2 febd cfd3 6f3e e1cf 0b3e
00000180: f93f d3bd ca70 a33d 1e73 793e 2c78 28be
00000190: 06ae cebd 621e 30be a8e2 f7bd a809 8cbe
000001a0: 63a5 3d3c 0a51 403e 99cd 273e 8571 a23d
000001b0: 15ab 9dbd a544 1bbe 9552 de3d 0a56 05ba
000001c0: 993d 813c 1e01 d53d 20e9 d4bd 394b 4f3d
000001d0: 445f 13be d032 5fbd e139 803d 2c28 4f3d
000001e0: 8f2e 21be 0575 ee3d 7b0e 0f3e aced 173e
000001f0: d2cd 93bd 0051 d13d e09c 4abd 99f6 89bd
00000200: b284 e53d b68a a4bc 4fb3 163e 2da2 353e
00000210: a3c9 7e3d c7d5 a23c 7282 823d b8b0 09be
00000220: 3533 8a3d 174a 7b3d 1d79 ee3d a601 733d
00000230: cb85 67bc c220 c53d 4dc4 1dbe 3cd9 123e
00000240: 174a 003e 0afe 0f3e d363 86bd dcfe df3d
00000250: 3332 ce3b f445 23be 3ed8 14be 5ff1 35be
00000260: 2632 1abe 233a 2c3e e337 4c3c e894 2f3e
00000270: 172b 813d 30eb 2cbe 708a fbbd ce2c ec3d
00000280: 05e1 14be 1677 8bbd d954 bdbd 0d29 293e
00000290: 3afb 08be 9008 72bd e581 e4bd ef86 ad3d
000002a0: 72f7 b1bd 9922 0d3a 1a43 d33c dd95 04be
000002b0: 3120 293e 5d83 bb3d f01a 0a3e b17c f4bd
000002c0: ee95 07be cc29 bebd 3af4 fe3d 8f1e 42bd
000002d0: 2bc1 263e d1f3 cc3d 10fc b53d e3c8 a1bd
000002e0: a0e4 38bd 3b22 5fbe 20ef 353e 5892 6cbc
000002f0: 29fe 3abd 360a 04be a01a 23be 4c61 21bc
00000300: 5695 393e feab 3d3e 97c7 d9bd 87d3 303e
00000310: 8492 6f3d aa2d 753d d49e c9bc 4955 a8bc
00000320: a233 a2bd b00b 8dbd 6c06 033d 91f0 efbc
00000330: 00cc 8ebd 13b5 a0bd 9f78 2037 201b 943c
00000340: 7c1c 4dbd 4e26 0d3e 765a bcbc c11a 313e
00000350: 11fc 8dbd 2a06 09be c7c6 11be 082c f9bd
00000360: 36a8 86bd c3c0 c3bd 152c abba 3b36 eebd
00000370: f6bf c8bd 5e3a 06be 673c 35be 7da3 5dbe
00000380: e5ce 1f3d c9b6 02be 22aa 6ebe fe3e 053e
00000390: 25ea 17bd 9120 05be ebe1 44be 36b8 2cbe
000003a0: a666 ef3d 94be 21be c33e 33bd fbc3 9cbd
000003b0: a081 3e3e 472f 1fbe 53f7 adbd 3d03 d43d
000003c0: 609f b7bd edbc 1abd da67 373c b8c4 f139
000003d0: 5fde 0a3e 9049 5b3e 8b9e efbd fc79 53be
000003e0: c5a7 953d 0c22 6abe c5b7 26be a0b0 1fbe
000003f0: 907c 0bbe c068 00bc e2e6 00bc e265 c8bd

bias f4 [10]
-0.032448906 0.019426875 -0.1851738 0.035687827 -0.15859954 0.17233899 0.0096311085 0.013971996
-0.08493136 -0.08384295
00000000: 25e9 04bd 1c25 9f3c 339e 3dbe 662d 123d
00000010: eb67 22be a279 303e cccb 1d3c ccea 643c
00000020: 7ef0 adbd dab5 abbd
