Trabajo Practico 2/models/conf_2_model.pth (torch, 944890 bytes, 6 tensors)

weight f4 [256, 784]
000000 76 79 4c bc 0a d4 05 3d a8 23 cf 3c 6a 75 11 3d
       -0.01248013 0.03267292 0.025285557 0.035512365
000010 b2 9d 22 3c e9 9c 4c bc 88 69 ca 3c 7c e7 e3 3c
       0.009925293 -0.012488582 0.024708524 0.027820341
000020 9b 8d b5 bc 9d b4 24 bc 47 5e 5c bb 28 ec c5 bc
       -0.02216225 -0.010052827 -0.003362553 -0.02416046
000030 0f 3e e9 bb 55 20 3f 3c 09 81 48 3c cf 86 2a bb
       -0.0071179937 0.011665423 0.012237796 -0.0026020294
000040 61 83 d0 bb 41 c8 0a bc 14 d8 1c bc 91 a4 25 bc
       -0.006363318 -0.008470596 -0.009573001 -0.0101100365
000050 9d 90 9c bc f3 3a 13 bd db ae 73 bc 57 7a fe bb
       -0.019111926 -0.03594489 -0.014873232 -0.007766049
000060 e3 1f 46 3c ac 80 d5 bc 03 74 ba 3c c8 a9 c5 3c
       0.012092563 -0.026062332 0.022760397 0.02412881
000070 1a c4 26 3c 12 aa 3f bb 73 f3 8a 3a 0d 6c 62 bc
       0.01017859 -0.0029245657 0.0010601118 -0.013819707
000080 f2 42 06 bc e8 28 05 bc a6 00 a2 bc 46 89 18 3c
       -0.008194672 -0.008127429 -0.0197757 0.009310072
000090 0d c9 90 3c d8 00 da 3c 2e 25 47 3d dc b8 e5 3c
       0.017673993 0.02661173 0.04861944 0.02804225
0000a0 b2 83 0d 3d 74 91 f9 39 2f 10 be 3c 06 cd 6a 3c
       0.034549423 0.00047601352 0.023201076 0.014331108
0000b0 8b ca a3 bc 95 7e 78 3d ba f0 34 3d d0 87 9c 3c
       -0.019994041 0.060667593 0.044174887 0.01910773
0000c0 cc 94 9a 3c ce 7d 04 bc 9a 29 00 3d bd 1a ef 3b
       0.01886978 -0.008086635 0.031289674 0.0072968886
0000d0 ab b0 08 3d ce d4 d7 3c f6 4c 0f bd 31 fa 34 3c
       0.03337161 0.02634659 -0.034985505 0.011045978
0000e0 f9 00 aa 3c 3a ca 74 3b 16 02 ee bc 18 c4 e9 3c
       0.020752417 0.0037351982 -0.029053729 0.028535888
0000f0 7f a8 3a 3c 65 0f b2 bc ff 94 19 3d 5e 9b 0a 3d
       0.011392712 -0.021735856 0.03749561 0.033839576
000100 c1 ab 9c bc 83 6a 8b bc 24 f9 d9 bc f2 91 1e 3c
       -0.019124867 -0.017018562 -0.026608057 0.009678351
000110 f8 56 e0 bc 8e c7 39 bd 7f 32 84 bc eb 51 99 bc
       -0.02738522 -0.045356326 -0.01613736 -0.01871582
000120 ea a1 39 3b e0 6d ac 3b 8f 49 09 bd 08 e6 da bb
       0.0028325268 0.0052621216 -0.033517417 -0.006680254
000130 b3 da 23 3c 97 62 27 3c cc bd fb bc f6 f9 e9 3c
       0.010000872 0.010216377 -0.03073015 0.028561573
000140 a0 b7 5e 3c 08 8a fb 3c 79 69 ea bc 12 59 78 3b
       0.013593584 0.030705467 -0.028614746 0.0037894887
000150 e6 4e 42 bc ec ca b7 3c ae 2d a5 3b 33 5f a6 bb
       -0.011859631 0.022435628 0.005040846 -0.0050772666
000160 66 bc a9 3c 97 69 25 3d e2 0d c0 3c c0 d4 20 bd
       0.020719718 0.0403839 0.02344412 -0.039265394
000170 ae c8 fb bc 42 cf bf bc c9 80 80 3c cb cd bd 3c
       -0.03073534 -0.023414258 0.01568641 0.023169419
000180 55 50 e0 3c d9 ad ae 3c 1a 81 47 bd ff b9 b8 bc
       0.027382055 0.021323131 -0.048707105 -0.022549627
000190 cb d8 99 bc 36 e3 fd bc e1 d6 1d bd 80 30 1b bd
       -0.018780133 -0.030992132 -0.038535003 -0.03788805
0001a0 a6 3e 78 3c 90 a6 e5 bb ae ba e5 3b 35 d5 11 bd
       0.015151655 -0.007008381 0.0070107793 -0.03560372
0001b0 d1 60 e0 bc 19 05 ad 3c 97 f9 04 bd 25 db 90 3b
       -0.027389916 0.021120595 -0.03246459 0.0044206553
0001c0 0c 11 6b ba 91 7f 08 3d dc ac b0 3c 7b c8 ea bc
       -0.0008967079 0.03332478 0.0215668 -0.02866005
0001d0 33 5c 39 bc 31 ec 5a bb 32 eb 33 bd 25 14 42 bd
       -0.011313486 -0.0033404941 -0.04392547 -0.047382493
0001e0 ea a2 cf 3b 0c 6a 18 bc b7 a3 f3 3c 0d 99 08 bd
       0.0063365595 -0.009302627 0.029741151 -0.033349086
0001f0 ec f3 4d 3c a0 79 69 bc 29 68 fe bc 34 f7 f7 bc
       0.012570363 -0.014250189 -0.031055527 -0.030269243
000200 4b 75 6f 3c c8 98 24 bd d0 27 02 bc 69 e4 07 bd
       0.014615367 -0.040184766 -0.007944062 -0.033176813
000210 80 04 14 bd 79 36 3b 3c bf af cb ba ac cc 86 ba
       -0.036137104 0.0114265615 -0.0015540047 -0.0010284386
000220 f0 8c 2b 3b a9 47 b0 bc 3c d7 9b 3c 72 b6 ae 3c
       0.0026176535 -0.021518545 0.01902353 0.021327231
000230 ad aa 6a bc 62 a3 96 3c f0 48 a0 bc 4c 2d 2a bc
       -0.014322919 0.018388454 -0.01956603 -0.010386776
000240 83 bd 88 3c ae ad 23 bc d8 6d af 3c f8 7b eb 3c
       0.016691929 -0.009990139 0.021414682 0.028745636
000250 8f e6 dc bc 0a e9 1b bd cd 3a e9 bc ca 67 8d 3c
       -0.026965408 -0.03806404 -0.028470421 0.017261405
000260 dc 7c f0 bc b4 5c 7f 3c 65 df 82 bc 5f a6 f4 bb
       -0.029356413 0.015586067 -0.015975663 -0.007466122
000270 c5 84 19 bd e7 3c 82 3c 90 7b 7f bc b7 57 1d bd
       -0.037480135 0.015898181 -0.015593424 -0.03841373
000280 cc 8e a7 bc 8f 63 ec bc ad 41 2a 3b 47 27 05 ba
       -0.020453833 -0.028856067 0.0025979087 -0.00050794
000290 d8 24 b6 bc 23 f3 ef 3b 07 56 2a bc 7e 22 86 bc
       -0.022234365 0.0073226853 -0.010396487 -0.016373869
0002a0 cc 92 03 bd 71 23 c6 3c cc fa b2 bc f0 de 01 bc
       -0.03212242 0.024186822 -0.021848105 -0.007926688
0002b0 36 29 17 3d 5f c1 59 bc 9b 2f 01 3d 95 3a 6d 3a
       0.036904536 -0.013290732 0.03153954 0.0009049562
0002c0 22 13 18 bc d5 f6 9e bb 9e 99 0e bc 00 2d 5c 3c
       -0.009281905 -0.004851202 -0.008703617 0.013438463
0002d0 0e 4a 3c bc f6 85 23 bc 1b 37 5a bc 93 fc 2d 3c
       -0.011492265 -0.009980669 -0.013318802 0.0106193
0002e0 a3 9e d1 bc a0 50 29 bd 21 d5 97 bc 19 eb 6b bc
       -0.02558834 -0.041336656 -0.018534245 -0.014399313
0002f0 77 cd b8 3c f1 e8 0c bd 3a 02 83 bc 6a d4 f0 bc
       0.02255891 -0.034401838 -0.015992273 -0.029398162
000300 b7 db e2 bc e3 f7 97 3b a8 ea 0b 3d 67 e7 9b bc
       -0.027692659 0.0046377047 0.034159333 -0.01903124
000310 92 d8 cb bc 40 d1 30 bc 93 41 02 3d 49 3d a2 bc
       -0.024883542 -0.010792077 0.031800818 -0.019804614
000320 51 d2 ae bb 4d d0 f2 3c 04 ff ac bc a5 8c e0 3c
       -0.0053351303 0.029640341 -0.021117695 0.027410815
000330 a0 c4 bd bc 24 29 08 3d ba fb 95 3c be 4c 21 3d
       -0.023165047 0.03324236 0.01830851 0.039379828
000340 56 ba a9 3c d2 35 4d 3c 4f 18 4a bb 3b e5 66 3c
       0.020718735 0.012525039 -0.0030837243 0.014092739
000350 57 8e 36 3b b3 12 40 ba 64 9b 23 bd 02 32 04 bd
       0.0027855837 -0.0007327005 -0.039943114 -0.032274254
000360 07 4f 11 bc 4f 5d 04 bd 4a 95 03 bd 2d a5 a3 bc
       -0.008868939 -0.03231555 -0.032124795 -0.019976223
000370 7a f6 2e 3c d8 36 f4 bc 0c fc b0 3c c8 17 d8 bc
       0.010678882 -0.029811308 0.02160456 -0.026378527
000380 72 62 61 3c 20 41 45 bc ae 3c d7 bc 96 dc 32 3d
       0.013756381 -0.012039453 -0.026274052 0.0436674
000390 69 d0 36 3c a6 84 d3 bc 62 6d 8e bc 5a f5 9f 3c
       0.011158087 -0.025820088 -0.017386142 0.019526172
0003a0 dd 71 05 3c fc 24 b3 bc dc 25 9b bc 71 24 98 bc
       0.008144823 -0.021868221 -0.018938951 -0.018572064
0003b0 7a ba 82 39 c5 22 96 bc 76 bc cb bc c4 01 30 bc
       0.00024934468 -0.018327126 -0.024870139 -0.010742608
0003c0 25 18 96 3c 92 23 8c 3c ca ab 60 bc 83 99 2e bd
       0.01832206 0.017106805 -0.013712833 -0.04262687
0003d0 dc 09 9b bc 97 82 f2 bc 59 07 80 3c 63 f6 96 3c
       -0.0189256 -0.029603286 0.015628504 0.018428033
0003e0 9f 5b c0 b9 ad c5 eb bc 26 2f 03 3d a2 d8 e9 3c
       -0.00036689357 -0.028780783 0.032027386 0.028545681
0003f0 5a d1 e8 bc 68 75 b0 bc 51 90 a5 bc 07 1e 42 3d
       -0.02842014 -0.021540359 -0.020210417 0.047391918

bias f4 [256]
000000 7b 87 92 bc 33 40 9e 3d 87 0c c4 3d af 31 84 bc
       -0.017886868 0.07727089 0.09572702 -0.016136972
000010 de 6e f3 3b f5 40 36 3d 17 f7 8e ba 74 bf b8 bc
       0.007428988 0.04449554 -0.0010907379 -0.02255223
000020 98 ff 1d 3d cf e4 7a 3d d5 49 3d 3c 57 99 25 bc
       0.03857383 0.061253365 0.011553247 -0.01010736
000030 c4 b9 45 3d 77 8d 9a 3c 4b 31 ec bb 60 b0 2b bb
       0.048272863 0.018866284 -0.0072080246 -0.0026197657
000040 49 b4 3a 3d 0f 47 95 bb af 26 d0 3c a8 82 3f bc
       0.04558209 -0.00455559 0.02540907 -0.011688866
000050 96 a5 7f 3c 46 e9 c8 3b 72 eb e1 3c 25 2e 80 bd
       0.015603444 0.006131324 0.02757809 -0.06258801
000060 21 6f f9 3b 5a a2 8c bc a4 a6 15 3d 09 f7 80 3c
       0.0076121246 -0.017167259 0.036535874 0.015742796
000070 04 91 08 3c ed ba 1b bd dd 31 ec bc de 65 39 3e
       0.008335356 -0.038020063 -0.02883237 0.18105265
000080 2e 19 7c bc 70 4a 83 bd 9c da 53 bd d3 a4 94 bb
       -0.015386863 -0.06410682 -0.051722154 -0.00453625
000090 05 26 09 3d 38 2b a1 3d 96 8d 53 bc 5d a2 07 3c
       0.033483524 0.078695714 -0.012912175 0.0082784565
0000a0 50 d0 2c 3c e5 6d cd 3d 59 ca a7 3c d1 f1 21 3d
       0.010547712 0.10030726 0.02048223 0.039537255
0000b0 2e 48 14 bd d4 54 b3 bc e2 19 62 bc f8 7b 2f 3d
       -0.03620165 -0.021891035 -0.013800116 0.042842835
0000c0 bf a0 cb 3d 86 e7 1d 3d 64 04 86 3d 1f f0 ab 3c
       0.09942769 0.038550876 0.06543806 0.020988522
0000d0 50 e5 74 3b e8 5d 1f 3d 57 0e 6e 3c 88 e2 2a 3b
       0.0037368126 0.038907915 0.014529786 0.0026074965
0000e0 d2 7c 78 bc c0 bb 02 3d ca 9f 4e bd 39 b4 84 3d
       -0.015166478 0.031917334 -0.050445355 0.06479687
0000f0 06 c6 03 3d d1 f6 7b 3d 0a ee 43 3d d5 80 37 3d
       0.03217127 0.06151468 0.047834434 0.0448006
000100 60 23 96 3b 1d 20 69 3c 65 64 c3 3c 8a f6 c0 bd
       0.0045818537 0.014228848 0.023851583 -0.094220236
000110 26 a6 a2 bc 25 ee 6e bd 02 9b a9 bc 9d 5a 3b bd
       -0.019854616 -0.05833258 -0.020703796 -0.045740712
000120 5a bb 50 3d 09 06 f4 3c 91 eb b6 3c a9 d2 30 3c
       0.050959922 0.029788034 0.022329124 0.010792413
000130 fb 2a 0d bd 55 d6 85 3c 94 1a ea 3d 6e ed 05 bc
       -0.034464817 0.016337553 0.114308506 -0.008174283
000140 cc 4e 0a bc ec 10 46 3d 52 8e be 3d a6 47 d2 3c
       -0.008441638 0.04835598 0.09304489 0.02566893
000150 fa bf 62 3d 7f 7c 82 3b 9c 53 88 3c 61 f6 d3 bb
       0.055358864 0.0039821262 0.01664143 -0.0064685796
000160 d0 78 97 3b 11 5d 91 3d 64 0c c0 3d 21 4e 11 3c
       0.0046225563 0.07097829 0.09377363 0.008868725
000170 41 fc af 3d 67 6e 6c 3c b4 52 9a bb a4 48 67 3d
       0.085930355 0.014430619 -0.004709566 0.05646576
000180 dc 8b 6e 3c 84 d2 3e 3d 1c 90 12 3d e5 ff 0c 3d
       0.014559712 0.046587482 0.035781965 0.034423728
000190 7c 52 af 3c 79 5d 38 3d 91 d5 52 bb e3 84 ae bb
       0.021401636 0.045011017 -0.0032170753 -0.0053259
0001a0 a4 8d 35 bd 7e 4f 62 bc b9 3d 07 bd 4f 16 22 3c
       -0.044324532 -0.013812898 -0.033017848 0.009893014
0001b0 ae 7e 01 3d 5c 94 1c 3c 6e d5 50 bd ed 74 32 3d
       0.03161495 0.009556856 -0.050984792 0.04356854
0001c0 6a 6d 5b bc 69 68 f4 3c c0 c0 c0 3c 67 0a c9 3c
       -0.013392786 0.029834943 0.02352941 0.024541093
0001d0 4b a0 24 bc c3 30 b0 bc 58 71 4a bc fb ae 2a 3d
       -0.010047982 -0.021507626 -0.012356125 0.04167078
0001e0 c3 a2 d6 3c d7 d5 da 3c 8a f7 99 3d e6 5b d0 b9
       0.026200658 0.026713295 0.075179175 -0.0003974132
0001f0 73 26 10 bd 3c ff 4f 3d 50 cc 87 3c 48 48 5c 3d
       -0.035192918 0.05078052 0.016576916 0.05377987
000200 1d 1a d8 3c 47 f0 2e bd 32 2b 0e bd e5 c2 3f bd
       0.02637964 -0.042709615 -0.034709163 -0.046816725
000210 a1 b7 90 3d 51 a4 2c 3d a7 e2 98 bc 6b e5 60 3d
       0.070662744 0.04214889 -0.018662764 0.05490629
000220 c2 72 a5 3b 32 41 26 bd 0c 7a 26 3d ea 75 b9 bb
       0.0050490806 -0.04058952 0.040643737 -0.0056598084
000230 bd 67 fb bc 65 26 0d 3d ff 80 84 3d fa bc 68 bd
       -0.030689115 0.034460444 0.064699166 -0.056820847
000240 23 e4 8b 3c 86 c1 0b 3d e0 92 a5 3c c8 5a 96 3d
       0.017076558 0.034120105 0.020211637 0.07341534
000250 3b 9e 19 3c 2f 74 4d 3c fd 6d 19 3d b4 b4 b5 3d
       0.009376104 0.012539907 0.03745841 0.08872357
000260 5e d4 f5 bc 4d 69 79 bc 7f 75 9f 3b a7 25 99 3d
       -0.030008491 -0.01522286 0.0048663015 0.07477885
000270 ce e5 28 bd a0 62 4b 3c 53 f7 f0 bc 05 3d 2b 3d
       -0.041234784 0.012413651 -0.029414808 0.04180624
000280 1c 86 19 bd 92 66 33 3c e9 a6 a2 3c c1 a2 b6 bd
       -0.037481412 0.010949748 0.01985498 -0.089177616
000290 09 1c 24 3d 7b 49 ee 3c f9 8e e6 3d a3 ec 20 bd
       0.0400658 0.029087773 0.112577386 -0.039288174
0002a0 4e 03 9b bc cf 00 5e bd 61 ea 5e 3c c1 c3 0f 3a
       -0.018922474 -0.05419999 0.013605685 0.00054841867
0002b0 09 50 32 3b 99 49 a3 bc a4 d3 00 3d e2 df 2e 3d
       0.002720835 -0.019932555 0.031451836 0.04269398
0002c0 57 b3 3e 3d a1 f9 3c bd 27 d9 d5 3c 98 7c f8 3d
       0.04655775 -0.046136502 0.026104523 0.12133139
0002d0 e0 bc 35 bc 29 98 cc 3d 78 54 95 3b fd 1d 47 3d
       -0.011092395 0.0998996 0.0045571886 0.048612583
0002e0 03 6d 94 3b 32 58 8a bc ea db a2 3a da 36 d4 3c
       0.004529597 -0.016887758 0.0012425159 0.025905062
0002f0 d1 af 63 bd 65 7d 5b bd 67 d5 78 3c 66 f5 e4 bb
       -0.055587593 -0.053586382 0.015187598 -0.0069872616
000300 eb 5d 4d bc 62 6d 31 3d 67 e4 a4 3d 8f 09 5f 3d
       -0.012534599 0.043317206 0.08051377 0.054452475
000310 ba 3d 99 3b 9e 1a e8 bb f3 0d f1 bc d0 6a 37 bb
       0.004676548 -0.007083251 -0.029425597 -0.002798725
000320 ed 88 d4 3d 8d bd 99 bc 36 b4 d1 bb c5 95 61 bb
       0.10377679 -0.018767143 -0.0063996566 -0.0034421545
000330 07 3e 02 bb 39 b5 65 3c 57 7e 0d 3c 01 97 47 3d
       -0.0019873397 0.014020258 0.008636079 0.048727993
000340 16 96 fe 3c c3 c7 95 3c 1e 74 30 3d 20 84 87 3c
       0.031077426 0.01828373 0.043079488 0.016542494
000350 8c da cf bb da b9 0c bb 62 24 08 3c d8 14 bb 3d
       -0.0063431915 -0.002147308 0.008309456 0.09134835
000360 8c dc 1e 3d a3 29 5f bd a4 ab 19 bc 47 7c d0 ba
       0.03878455 -0.054483067 -0.009379301 -0.0015906178
000370 f3 e8 9b 3b da 93 13 bd 75 c1 d6 bc 5f 67 1a 3d
       0.0047579943 -0.036029674 -0.026215294 0.03769624
000380 8c 88 bb 3c 3c 34 d1 3c a7 bf 03 3c a2 e5 19 bc
       0.022892259 0.025537603 0.008041299 -0.009393128
000390 2d 3c 02 bd eb 73 ab 3c fe 88 7c 3c c5 3a ab 3c
       -0.03179567 0.020929297 0.015413521 0.020902047
0003a0 53 18 51 bb 5d da c5 3d b3 b9 1f 3d 9b 41 fb bc
       -0.0031905368 0.0966079 0.038995456 -0.030670932
0003b0 ab 3e 01 3d b0 7d 6b bd 23 6d 09 3d a2 0b f5 bc
       0.031553905 -0.05749291 0.033551347 -0.029912774
0003c0 e6 2b a4 bc 3f 5c 1c 3d b6 df d4 3d 7f 64 00 3d
       -0.020040464 0.03817391 0.10394232 0.03134584
0003d0 d0 c1 65 bd 75 15 18 bc 6f 8d 24 3d a8 b7 29 3d
       -0.056093037 -0.0092824595 0.040173944 0.041434914
0003e0 01 d9 81 3c 95 3c 31 b9 f0 6a 23 bc c0 8a 7f bc
       0.015850546 -0.00016902604 -0.009974226 -0.015597045
0003f0 15 2e 99 bc 8a d2 94 bd 24 09 27 3c 93 84 62 3c
       -0.018698731 -0.0726672 0.01019505 0.0138255535

weight f4 [128, 256]
000000 4f d1 7d bd 6e 83 b3 3c a3 5e c7 bc 66 f3 54 3d
       -0.06196719 0.021913256 -0.024337118 0.051989935
000010 74 1f 6a bd 05 e3 3d bd ff 31 5e bd 25 d4 a7 bb
       -0.057158902 -0.04635908 -0.0542469 -0.005121725
000020 9e 1a 97 3c 6c 59 d1 bc e6 9a 82 3d 34 33 c5 3c
       0.01844531 -0.025555335 0.06377201 0.024072267
000030 44 d6 95 3d 28 3d a6 bc d1 6c 31 3d 9d 72 aa bc
       0.073162585 -0.020292833 0.043316666 -0.020806605
000040 f8 b8 01 3d bc 87 1c bd 5a 17 ea bc 94 a1 7b bd
       0.03167054 -0.038215384 -0.028575588 -0.06143339
000050 e9 ac 83 3d 0b 5a 13 3d 87 c9 4f bd 51 6d 65 3c
       0.06429464 0.035974544 -0.0507293 0.014003114
000060 b3 fe 9d 3d c1 0e 81 bd 0a 54 e4 3d ba 50 5d 3c
       0.07714596 -0.06301642 0.11148842 0.013508016
000070 60 f0 68 bc 65 65 7e 3d 8a 37 b8 3c 0f d3 dd bc
       -0.014217466 0.062108416 0.02248742 -0.02707818
000080 38 d8 d2 bc 91 5a 8e 3d 60 29 87 bd ce 10 2d bc
       -0.025737867 0.06950868 -0.065996885 -0.010563089
000090 c9 0d 46 3d 58 cf d5 3c 73 e5 5c bc 87 51 25 bd
       0.04835299 0.026099846 -0.013482439 -0.040360954
0000a0 ef cc 2e bd 50 c6 b8 3d 79 5d aa 3d 71 5b 8a bb
       -0.04267591 0.090222 0.0831861 -0.0042223264
0000b0 30 62 89 bc bf 6e 3f bd 99 ed ab bb 9a c9 68 3d
       -0.016770452 -0.046736475 -0.0052468297 0.056832887
0000c0 bc 5b 1e 3d 7a 45 6c bc fb 93 91 bd eb f6 08 3d
       0.038661703 -0.014420861 -0.07108303 0.033438604
0000d0 a3 7a cb bc 6c 27 3d 3d 54 cf 50 3d 85 32 6c bc
       -0.024838751 0.046180174 0.050978974 -0.014416342
0000e0 3b ff e5 3b 77 cc b5 3c 36 59 a3 bd 03 81 77 bd
       0.0070189512 0.022192223 -0.07976 -0.06042577
0000f0 15 80 06 bc f3 83 09 3d c9 3c 45 bd 61 ec 39 3d
       -0.008209248 0.033573102 -0.048153672 0.045391444
000100 e9 54 1a bd 42 fc 27 bd 15 7d 29 bd 85 a4 0b 3d
       -0.037678633 -0.041012056 -0.041379053 0.034092445
000110 e8 b3 48 bd f5 5a c3 3d 04 93 73 3d bb b2 8f 38
       -0.048999697 0.09538833 0.059466377 6.8520625e-05
000120 1c 3e 93 bd 8a e4 ca 3c 91 c3 99 bc 06 c2 a3 3d
       -0.07189581 0.024767179 -0.018770011 0.079959914
000130 a4 8b 2a 3d b8 fd dd bc 1d c7 54 bd af 2a 18 bc
       0.041637078 -0.027098522 -0.0519477 -0.00928752
000140 1a c4 88 3c c2 dc 4f bd 80 76 a8 bd 6c 2c 4b 3d
       0.016695071 -0.05074764 -0.08225727 0.04960291
000150 16 08 60 bc 01 14 16 3d d2 75 e7 3b b3 6f 79 bd
       -0.013673803 0.03664017 0.007063606 -0.06089754
000160 c8 ad d0 3c 7b d9 1c bd dd f4 3e bd c3 41 c5 3d
       0.02547349 -0.038293343 -0.04662024 0.09631684
000170 08 0f 9d 3d 4a cf ca 3c c2 78 33 bc ce ad d8 bc
       0.076688826 0.024757046 -0.010954084 -0.026450064
000180 a0 a9 e2 3c af 36 b8 3c 7d dd 60 3d e6 20 49 bd
       0.027668774 0.022487013 0.054898728 -0.04910364
000190 e1 db ce bc 9a aa 13 3d c4 b7 9d 3d cc 11 8d bd
       -0.02525133 0.03605137 0.07701066 -0.0688816
0001a0 3e 9f 04 bd 62 15 23 3d ab 7a 81 bc 34 80 0f bc
       -0.032378428 0.039815314 -0.015805563 -0.008758593
0001b0 7f 98 02 bd 70 19 bc bc f0 5b 06 bb 0e 1c 7a bd
       -0.031883713 -0.022961348 -0.0020501576 -0.06106191
0001c0 94 00 80 3d 69 f2 ac bc bf 08 77 3d 90 51 1e 3d
       0.0625011 -0.021111684 0.060311075 0.038652003
0001d0 80 2a c1 3b 62 49 1d bd 19 53 b7 3d ee b1 b6 3c
       0.005894959 -0.03840006 0.089513965 0.02230164
0001e0 9a 66 b2 bc 64 34 fb bb e3 80 5b 3d 6b 1e 48 bc
       -0.02177744 -0.0076661576 0.053589713 -0.012214283
0001f0 d9 d4 af 3c 68 2f ed 3c 76 85 03 bd a7 8e 76 3d
       0.021463798 0.02895327 -0.0321097 0.060194638
000200 ad 66 14 3d ed 78 59 3d 4e ef 27 bd a7 34 46 3d
       0.03623073 0.05309384 -0.040999703 0.048390057
000210 1b 61 36 bd 4d 76 87 3d 2f 69 82 3b 4d 95 8b 3d
       -0.0445262 0.06614361 0.003979824 0.06815586
000220 c7 7b 3f bd 6b a1 c8 3d 0a 13 10 3d 70 b5 ce 3c
       -0.046748903 0.09796413 0.035174407 0.025233
000230 d7 6e a0 3d 21 ce d3 3c c9 a6 10 3d bf 79 39 3a
       0.07833641 0.025855126 0.03531531 0.00070753315
000240 9f 76 06 bd 4e e3 51 bd 2e 10 dd bc b8 61 aa bb
       -0.03282797 -0.051242165 -0.026985254 -0.0051996373
000250 49 40 57 3d d6 e9 75 bd 0c ac e8 bc 46 eb 01 bd
       0.05255154 -0.060037456 -0.02840235 -0.031718515
000260 89 4f 73 3a d4 2f ad 3a 68 00 cd bc 86 ec 77 3d
       0.0009281566 0.0013213106 -0.025024608 0.0605283
000270 e7 f5 c1 3d 0d ed 58 bd 3b ca ad bd 91 a9 ba bb
       0.0947073 -0.052960444 -0.08485838 -0.0056964834
000280 1f 9b 08 3e 81 8c 6e 3a ca 4a da 3c 93 62 f0 3b
       0.13340424 0.0009099916 0.02664699 0.0073359697
000290 ff 2a f7 bc c3 2f 35 bc 9e 03 f4 bc 3a 3e 06 bd
       -0.03017187 -0.011058751 -0.029786881 -0.032774188
0002a0 7f 03 01 ba 4d d5 e4 3c 7e a9 c4 3c 90 98 b3 3c
       -0.00049214804 0.027933741 0.024006601 0.021923333
0002b0 1d cf 17 bc 7c 63 98 3d 28 a7 ad bc 01 03 23 3c
       -0.009265688 0.0744085 -0.02119787 0.009949447
0002c0 74 9e 81 bd 94 0a 65 bd 78 ce 26 bd 10 b3 4a 3c
       -0.06329051 -0.05591829 -0.040724248 0.012371793
0002d0 65 6a 7e bd 20 82 51 3d 11 28 f0 3c af 05 de bc
       -0.062113184 0.051149487 0.02931598 -0.02710232
0002e0 40 a4 71 3d 3f cc 24 bb e4 28 f8 bc fe f3 57 3d
       0.05899453 -0.0025146154 -0.030292936 0.052722923
0002f0 24 dc 04 bd 32 84 fd 3c a6 ef 02 3c 79 72 49 bd
       -0.032436505 0.030946825 0.007991707 -0.049181435
000300 1a 43 5a 3d 6d 28 8d 3c c5 80 52 3d cc a5 67 3d
       0.05328665 0.01723119 0.051392335 0.0565546
000310 4a eb 2e bd ec 3e 46 bd 2c b5 a1 3c 88 a6 06 3d
       -0.042704858 -0.04839985 0.01973971 0.03287366
000320 c6 67 24 bd 1f 98 53 3d 67 1e 63 3d 12 60 03 3c
       -0.04013803 0.051658746 0.055448916 0.00801851
000330 25 41 93 3d 90 85 09 bd 24 e7 8c 3c 09 f1 6c bb
       0.0719016 -0.03357464 0.01720006 -0.003615441
000340 70 27 a2 3d 16 dc 09 3d d8 d6 08 bd 3b 13 81 bc
       0.07917678 0.033657156 -0.033408016 -0.01575624
000350 d7 e4 98 bd a0 1e 67 bd f2 42 0b 3d e0 58 5b bd
       -0.07465523 -0.05642569 0.03399939 -0.053551555
000360 a1 21 7d bc 64 7b 5e bd 6c d4 b3 bd 04 fd a6 bc
       -0.015449912 -0.054316893 -0.08780751 -0.02038432
000370 ba f8 f9 3b ae ac 2d bd 5f 3e 9b bc f0 5c ad 3a
       0.0076285275 -0.04240101 -0.01895064 0.001322655
000380 25 fe 71 bd 6c 83 95 bc 31 5b 9a 3a 80 00 fc 3b
       -0.05908026 -0.018251143 0.0011776445 0.0076904893
000390 7b f3 cb bd 78 ff 9e 3a 6c 46 8b bb dc 54 a7 3c
       -0.099585496 0.0012130579 -0.0042503383 0.020426206
0003a0 68 83 4d 3d 6c 9c 19 bd b6 26 3f bd 6e 18 1a bd
       0.050174147 -0.03750269 -0.046667777 -0.037620954
0003b0 a7 ea 91 3b 86 eb 20 3c f6 60 1c 3b 3d 60 9e 3c
       0.0044530216 0.009821778 0.0023861504 0.019333
0003c0 f1 0f 1b bd 9a 4a 12 3c ff 21 1e 3d 1f 2b 18 bd
       -0.037857 0.008928919 0.03860664 -0.0371505
0003d0 68 22 2e 3c f0 f9 f2 3b 52 5e 36 3d 98 ab 65 bd
       0.01062832 0.007415049 0.044523545 -0.056071848
0003e0 eb 5b b6 3c 07 3d 48 3c 52 3c db 3c 20 51 c6 3c
       0.022260627 0.012221581 0.026762161 0.024208605
0003f0 02 f3 61 3b a9 f0 d6 3c 92 14 4e 3d 2b e0 41 bc
       0.003447712 0.026237803 0.050312586 -0.011833231

bias f4 [128]
000000 cb c3 a2 3d 8f 6c 81 3d a2 37 0c be af 6d 6d bd
       0.07947501 0.06319534 -0.13693097 -0.05796593
000010 e2 9a 99 3d ff cb e8 3c 8f c2 98 bc 3f 7a 9b 3d
       0.07500245 0.028417585 -0.01864746 0.07591676
000020 45 f7 ad bd 48 70 00 3d 79 fb 1d bd 52 71 e5 bd
       -0.084944285 0.03135708 -0.0385699 -0.11203255
000030 69 82 0c bd 77 f2 7d 3d d3 c1 80 3d 4a 8d 18 3e
       -0.034304056 0.06199881 0.06286969 0.14897648
000040 56 ff 89 bd cc 28 93 3d b2 71 00 3e 36 e0 a5 3d
       -0.067381546 0.07185516 0.12543371 0.080994055
000050 a6 48 b1 bc 78 3d 25 3e 68 0a d5 3c cf be c5 3b
       -0.021641087 0.1613673 0.026005939 0.006034709
000060 52 fe 88 bd e3 95 a5 3d 2e 61 98 bc dc e4 99 bd
       -0.06689133 0.08085229 -0.018601026 -0.075143546
000070 7c 4d a5 3d 62 1d c7 3b 95 4a 18 bd c6 db 36 3d
       0.080714196 0.0060765008 -0.037180502 0.044643186
000080 9a b9 50 3d da d0 23 bd 28 96 35 3c 50 c7 0b bd
       0.050958253 -0.0399941 0.011083163 -0.034125626
000090 0d 72 89 ba 66 e4 3b bd eb 5c 0f 3e a1 9b 75 3d
       -0.001048626 -0.045872115 0.14000289 0.059962872
0000a0 86 f2 8a bc 00 31 55 bc 9b 15 95 3d 05 87 29 3d
       -0.016961347 -0.013012171 0.072795115 0.04138853
0000b0 df 8c af 3c 13 c1 ee 3d 10 b5 eb ba 5b 23 be bd
       0.021429477 0.1165792 -0.0017983038 -0.09284087
0000c0 95 d6 86 3d 16 41 d0 3a f5 c7 b9 ba 1b 33 a1 3d
       0.06583897 0.0015888538 -0.0014173972 0.07871076
0000d0 63 4a b2 3c f0 cf 68 bd 8b d9 4c bd 47 a8 27 3e
       0.021763986 -0.05683893 -0.050012153 0.16372786
0000e0 a3 57 4b 3d 4d 86 ee 3b ee 1d 48 3d 7e 01 c1 3d
       0.049644124 0.0072791935 0.04885667 0.09424113
0000f0 d7 68 11 3d 7f eb 87 3c f4 8b 37 3d a8 7b 6c 3d
       0.035500374 0.016591785 0.044811204 0.057735115
000100 18 9d f1 bc 95 6e e4 bb 8c e3 91 3d 2a 33 25 bd
       -0.029493853 -0.00697119 0.07123479 -0.040331997
000110 39 67 1c 3e be 76 d6 3d 5e ba 7d 3c e2 e1 e3 3c
       0.15273751 0.10471867 0.015486328 0.02781767
000120 9d e9 60 3e 6e 8e a3 bd 05 d9 8c 3c a4 7e 22 3e
       0.21964116 -0.07986151 0.017193327 0.15868622
000130 45 c3 82 3d 4b 9d ab 3d 7b 9b 45 3c 31 e4 0d bb
       0.06384901 0.08379611 0.012060995 -0.0021650905
000140 ec 45 8d 3d a1 34 88 3d 38 6d 6c 3d 7a 2d 26 bc
       0.06898102 0.06650663 0.057721347 -0.010142678
000150 6d ac 4c 3d fb 74 c1 3d 77 a4 1c bc aa aa e9 bc
       0.049969126 0.094461404 -0.009560696 -0.028523762
000160 62 2e aa 3c 1b 42 9c bd 32 f1 bd 3b 5d 37 36 3d
       0.02077407 -0.07629796 0.005796575 0.044486392
000170 9f 79 11 3d a0 3a 4b 3d a2 8d 2c 3d 43 2c 1b 3d
       0.035516378 0.049616456 0.04212726 0.03788401
000180 6b 4a d1 bc 5d 3a 25 3d c0 a9 2c 3c 1b ef e6 3d
       -0.02554818 0.040338863 0.010538518 0.112760745
000190 f3 d1 cf 3d bb 2a 99 3c c9 62 36 3e e7 67 c7 3d
       0.101474665 0.018697133 0.17811121 0.09736615
0001a0 b3 2f 34 3e b3 6c 99 3d 34 65 50 3d b0 04 0b 3c
       0.17596321 0.07491436 0.050877765 0.008485004
0001b0 19 66 02 3e 9b 25 d7 bd ee 27 99 3d c1 70 90 bd
       0.1273426 -0.105052195 0.07478319 -0.07052756
0001c0 0c 77 ac 3d e9 b0 c5 bd aa 45 28 3d 2d d6 91 3d
       0.08421144 -0.096528836 0.04108206 0.07120929
0001d0 63 aa 1e 3d 4e 2a 0f bd c6 02 49 3e 01 ff b1 3d
       0.038736712 -0.034952454 0.19629964 0.08691216
0001e0 ac 58 b8 3d 6f 51 e7 3d b8 c3 45 3e 9b a4 87 3c
       0.09001288 0.11294829 0.19312942 0.016557982
0001f0 13 ed 41 3c 4b dd 47 bb 5d dc bc 3d 7a 6b b1 bb
       0.011836308 -0.003049689 0.092217185 -0.0054144235

weight f4 [10, 128]
000000 cf b0 ff 3d 66 0b 2f bd e8 4d 49 bd c1 e6 fe bd
       0.124848954 -0.04273548 -0.049146563 -0.124463566
000010 45 89 e3 3d 3f 4f 6d 3d 55 a1 76 3d 18 b5 07 be
       0.111101665 0.057936903 0.060212452 -0.13252676
000020 37 09 35 bd 24 8e dd bc d4 be bb bd cc 04 8c bd
       -0.04419824 -0.027045317 -0.09167257 -0.068368524
000030 c6 29 34 3e 46 03 95 3d 68 f2 22 be 9e ea 13 be
       0.1759406 0.07276015 -0.15912783 -0.14444968
000040 b3 f9 2f bc 9e 93 d0 bd 97 11 3d be ea 5d bf 3d
       -0.010740685 -0.10184406 -0.18463741 0.093440846
000050 6b 3a 78 bd d0 5b 75 3d 79 0f dd bd b7 44 94 bd
       -0.060602587 0.059902012 -0.10793967 -0.07239669
000060 bc 55 2e be dc df cf 3b 9a b4 58 bd f0 84 10 bd
       -0.17024893 0.006343825 -0.05290661 -0.03528303
000070 35 6a f6 3d 30 13 1d bd cf a3 9c bc 4e 79 29 3e
       0.12031976 -0.038348377 -0.019121079 0.1655018
000080 f6 40 1c be 00 77 d6 bc 5d 5a 5b bd 68 75 b9 3d
       -0.15259156 -0.02617979 -0.053552974 0.090555966
000090 c2 b6 82 bd 5b 31 0e be b8 2a 8e bc 07 f7 4c 3d
       -0.063825145 -0.13886015 -0.017354354 0.05004027
0000a0 fe 4f 81 3d 9f ce 08 bd 9c f8 03 3e 24 b5 21 3e
       0.063140854 -0.033400174 0.12887806 0.15791756
0000b0 26 0a fb 3d c2 af 26 be 52 40 b1 3d bd 2d df 3d
       0.12257795 -0.16277984 0.08654846 0.10897396
0000c0 c1 1a fc bd 8e 84 2a 3e 35 c3 cb 3c e9 89 aa bc
       -0.123097904 0.16652128 0.024873355 -0.020817714
0000d0 b9 4c 00 be ca e3 98 bd 03 88 1e 3e 6b 05 41 3e
       -0.12529267 -0.07465322 0.15481572 0.18849723
0000e0 b0 cc a3 3d 80 8b 18 be 9e 92 1a be 9c 43 ff 3d
       0.079980254 -0.14896965 -0.15094993 0.12464067
0000f0 96 fa bf 3d fa 9d 37 bd 0f a2 07 bd 11 a9 09 bd
       0.09373967 -0.044828393 -0.033113535 -0.0336085
000100 0f f9 21 be ff ed 01 3e a8 1d f8 3d 3f b4 35 3c
       -0.15817665 0.12688445 0.121150315 0.011090337
000110 16 78 b4 bb f2 08 04 3e 51 57 5d 3d 15 79 38 3d
       -0.0055074794 0.12894037 0.05403835 0.045037348
000120 79 e9 ab 3d e1 fd a0 bd d4 7b b0 bd 1a 91 20 be
       0.08394141 -0.078609236 -0.08617368 -0.15680352
000130 2f 07 25 3b fb 35 26 3e ce 52 8d 3d 2c fa 0e be
       0.0025181284 0.1623153 0.06900559 -0.1396262
000140 3c 2a 9f 3d b5 bc 46 3d b6 dd ae 3d 46 a2 96 3c
       0.077717274 0.04851981 0.08538382 0.018387925
000150 17 b3 27 3d dd 5b 1a be 1a c9 0f be 78 3c 86 3d
       0.040942278 -0.15074106 -0.14041558 0.06554502
000160 48 67 80 3d e4 18 3f 3e 04 2a ab bd 5c 22 33 bd
       0.06269699 0.18661839 -0.08357623 -0.04373394
000170 1c 53 4a be 2d e3 90 3d d5 ee b3 3d 1c 69 4e be
       -0.19758266 0.0707458 0.08785788 -0.20157284
000180 e4 e1 52 be 21 9f e6 bd ab 0f 30 3c 16 32 0d be
       -0.20593983 -0.1126082 0.010745923 -0.13788638
000190 16 6b 3b 3e d2 27 70 bd fa 02 dd 3d 97 79 15 3e
       0.18302569 -0.058631726 0.10791583 0.14597164
0001a0 4a 5c 43 3d a5 4f 12 3d 82 44 47 be bb bd 06 3e
       0.047695436 0.035720486 -0.19459727 0.13158314
0001b0 93 11 12 be f2 af c7 bd 7d a4 da bd 49 5b f5 3d
       -0.14264517 -0.09750356 -0.10675905 0.11980302
0001c0 eb 1a 2a 3e e4 f8 26 be 7b 83 83 bd 89 1b bd 3d
       0.16611831 -0.16305882 -0.06421562 0.092337675
0001d0 c3 7e 24 3e 39 fa 60 3d cf 18 80 3d ee 9b 55 3e
       0.16063981 0.05492613 0.06254732 0.20860264
0001e0 f8 23 0a 3e 03 48 65 bd c2 de f7 3d 4a cf 70 bc
       0.13490283 -0.05597688 0.121030346 -0.014697859
0001f0 a3 83 c6 bd 5a fe 9f 3d f8 ea df 3d 84 5e e4 3d
       -0.096930765 0.078121856 0.109334886 0.1115084
000200 a8 24 00 3e b8 1a ab bc 62 aa fa 3c a5 34 d5 3d
       0.12513983 -0.020886764 0.030598823 0.10410432
000210 ef bf f9 3d c4 9a 2d be 71 4d 21 3d c4 01 f7 bd
       0.121948116 -0.1695357 0.039380495 -0.12060884
000220 51 a2 c5 3d b9 29 91 bd c9 ef 32 3d f8 42 b7 bc
       0.096501 -0.07088036 0.04368571 -0.0223708
000230 de 20 55 bd 1e 3a 6e 3e e1 6e 89 bd 0e 38 59 be
       -0.052033298 0.23264357 -0.067106016 -0.2121279
000240 44 c7 9c 3d 43 20 87 bd c7 13 c8 bd dc a7 f1 3d
       0.076551944 -0.0659795 -0.09769397 0.11799595
000250 58 06 8e 3d 9a 73 f2 bd 67 92 c0 3e 9c 12 cd bd
       0.06934804 -0.118384555 0.37611696 -0.10013315
000260 6f 3b 31 3d 7c 8f 66 3c f1 85 17 bd ad f3 10 bd
       0.04326957 0.014072295 -0.03699297 -0.035388637
000270 82 43 31 3e dd 9f 60 3c a6 e7 d1 3d 2b 99 55 be
       0.17310908 0.013709989 0.102492616 -0.2085921
000280 ec 36 16 3c fb 80 6e bd 89 0e 01 be c0 44 d7 3d
       0.009168368 -0.058228474 -0.12603201 0.1051116
000290 e4 61 09 be 23 03 32 3e 7f 71 e0 bc ec 43 83 bd
       -0.13416249 0.17384009 -0.02739787 -0.064094394
0002a0 53 d6 31 bd 14 99 56 3e ee c8 23 be 03 0c 6f be
       -0.043417286 0.20956832 -0.15994617 -0.23344426
0002b0 b5 b6 b9 bd 05 7f 5f be 98 b6 b7 bc 59 92 55 be
       -0.09068052 -0.21825798 -0.022425935 -0.20856608
0002c0 da ad ec bd 27 42 db bd 0c 7d 4f be d4 0c 3f bd
       -0.11556597 -0.10705977 -0.20262545 -0.046643093
0002d0 8d 90 3a 3d be 32 86 3c b2 94 05 be 7c e1 9f bd
       0.04554801 0.016381618 -0.13045004 -0.078066796
0002e0 5c ae dc 3c 4d 90 14 3c d5 94 0e be bc f3 f2 bd
       0.02693861 0.009067607 -0.13923962 -0.11862895
0002f0 58 49 40 be 48 d4 95 bd b7 f8 fc 3d a0 5c b8 ba
       -0.18777978 -0.0731588 0.12352126 -0.001406569
000300 cd 3f 1a 3b 76 61 23 be 85 4f d3 bd da d8 49 3c
       0.0023536563 -0.15955147 -0.103179015 0.012319768
000310 df 86 cb 3b f6 48 e5 bd 66 d7 93 bc 27 8d b6 3d
       0.0062111462 -0.11195557 -0.018047046 0.089136414
000320 f7 03 1a be 80 53 3f 3d 06 3b 97 3e 76 43 ec 3d
       -0.15040575 0.04671049 0.2953722 0.11536305
000330 33 de 42 3d 22 6f 4a 3e 2e 07 22 3d e6 2d b1 bd
       0.047575187 0.19768956 0.03955763 -0.086513326
000340 9b c2 36 be 3a 94 b6 bc 03 88 aa 3d 12 9a 54 3e
       -0.17847674 -0.022287477 0.083267234 0.20761898
000350 9c 10 26 3e 0c 5a 36 be 16 cb ba bd e5 b9 50 3d
       0.16217273 -0.17807788 -0.09120767 0.050958533
000360 2d c6 12 3e d1 fd 15 3e 76 dc 2f 3e cb ee 44 3d
       0.1433341 0.14647605 0.17173943 0.048079293
000370 a7 7c 68 3e 66 49 92 3e 0d d6 0b 3e cc 02 0f 3e
       0.22703801 0.28571624 0.13655873 0.1396591
000380 88 f3 22 be e9 fa 14 3e 1e 9f a2 3d 3c b2 04 3e
       -0.15913212 0.1454884 0.079405054 0.12958616
000390 e9 21 17 3e 56 61 19 3c 89 41 53 bc 96 02 33 3e
       0.1475903 0.009361586 -0.012894043 0.17481455
0003a0 9e cf 0e be 67 5d 7d 3e c3 95 1f be 44 ed 88 bd
       -0.13946387 0.24742661 -0.15584473 -0.0668588
0003b0 15 e6 0c be 4f ce ab 3c e3 13 65 3d d5 a3 20 3e
       -0.13759644 0.020972399 0.05592717 0.15687497
0003c0 04 ea 41 3e 2a 38 55 3e 54 77 c1 bb 8b 11 58 be
       0.18936926 0.20822206 -0.0059041176 -0.21100442
0003d0 85 3e 33 be 52 8e 12 be 5c fb 81 3b e9 75 53 3e
       -0.17504318 -0.14312103 0.003966732 0.20650448
0003e0 c6 45 ba bd 2b e3 a0 38 15 52 97 3d 9b b4 b7 3c
       -0.090953395 7.671708e-05 0.07388703 0.022424987
0003f0 c6 27 95 bc 29 31 8e bd 54 82 80 3e b3 41 78 3d
       -0.018207442 -0.0694297 0.25099432 0.06060953

bias f4 [10]
000000 82 0d 8c bc 5a eb 27 bd c9 cd 18 bc 59 78 dc 3d
       -0.017096285 -0.040995933 -0.009326407 0.10765142
000010 57 cc b1 be 84 21 61 3f 20 ea 09 3e b4 0d ff bd
       -0.3472621 0.87941766 0.13468218 -0.124537855
000020 11 14 9e be 98 d9 bb be
       -0.30874684 -0.36689448
